tensorflow/lite/micro/examples/hello_world/hello_world.tflite (tflite, 2864 bytes, 3 tensors)

std.constant i1 [16, 1] scale=0.0042242804 zero_point=0
00000000: 751c 11e1 0c81 a542 fed5 d4b2 6178 19df
0.4942408 0.11827985 0.071812764 -0.13095269 0.050691366 -0.5364836 -0.38440952 0.2788025
-0.008448561 -0.18164405 -0.18586834 -0.32949388 0.4097552 0.50691366 0.10560701 -0.13940126

std.constant1 i1 [16, 16] scale=0.012634601 zero_point=0
00000000: eefc 00ec 0517 efec e6f8 0301 00fa f8f5
00000010: dceb 2714 f1de e2db f0de 3106 02e6 eef9
00000020: 0016 07e0 feff e906 e7ef 811b 18ea c901
00000030: 0f00 daf7 0eec 131f 0413 b4e6 fd06 b9e0
00000040: 0dec f0de ebf7 0526 1ae4 6f1a ea1e 35df
00000050: 1af3 f119 0f03 1be1 de13 f619 fff6 1b18
00000060: f01c da1b 1b20 e51a f5ff 960b 0001 cdde
00000070: 0df6 16e3 edfc 0ee9 faeb 5cfc 1d02 5be2
00000080: e1f5 15ec f400 1305 ec0c 1d14 0ee7 0bf4
00000090: 1900 d705 2702 15ea ea02 9b00 0cfa e8ea
000000a0: fd00 14fd 0b02 efee 06ee 010d 06e6 f711
000000b0: f709 f8f1 21ff 0ef3 ec12 261d f2e9 2818
000000c0: e0fb f3f4 051d 1dfb fd1e fc11 e807 0903
000000d0: 12f2 36fb dc1c f9ef f3e7 6f0c 1d00 45fd
000000e0: 0ef0 0b19 1afa e019 1f13 361c 12eb 3b0c
000000f0: b4cb e613 faeb f106 1cfa 18e5 ebcb 0cf4
-0.22742283 -0.050538406 0.0 -0.25269204 0.06317301 0.29059583 -0.21478823 -0.25269204
-0.32849964 -0.10107681 0.037903804 0.012634601 0.0 -0.07580761 -0.10107681 -0.13898061
-0.45484567 -0.26532662 0.49274945 0.25269204 -0.18951902 -0.42957646 -0.37903804 -0.46748024
-0.20215362 -0.42957646 0.61909544 0.07580761 0.025269203 -0.32849964 -0.22742283 -0.08844221
0.0 0.27796122 0.08844221 -0.40430725 -0.025269203 -0.012634601 -0.29059583 0.07580761
-0.31586504 -0.21478823 -1.6045943 0.34113425 0.30323043 -0.27796122 -0.6949031 0.012634601
0.18951902 0.0 -0.48011485 -0.11371142 0.17688441 -0.25269204 0.24005742 0.39167264
0.050538406 0.24005742 -0.9602297 -0.32849964 -0.037903804 0.07580761 -0.8970567 -0.40430725
0.16424982 -0.25269204 -0.20215362 -0.42957646 -0.26532662 -0.11371142 0.06317301 0.48011485
0.32849964 -0.35376883 1.4024408 0.32849964 -0.27796122 0.37903804 0.66963387 -0.41694185
0.32849964 -0.16424982 -0.18951902 0.31586504 0.18951902 0.037903804 0.34113425 -0.39167264
-0.42957646 0.24005742 -0.12634602 0.31586504 -0.012634601 -0.12634602 0.34113425 0.30323043
-0.20215362 0.35376883 -0.48011485 0.34113425 0.34113425 0.40430725 -0.34113425 0.32849964
-0.13898061 -0.012634601 -1.3392677 0.13898061 0.0 0.012634601 -0.64436466 -0.42957646
0.16424982 -0.12634602 0.27796122 -0.36640343 -0.24005742 -0.050538406 0.17688441 -0.29059583
-0.07580761 -0.26532662 1.1623833 -0.050538406 0.36640343 0.025269203 1.1497487 -0.37903804
-0.39167264 -0.13898061 0.26532662 -0.25269204 -0.15161522 0.0 0.24005742 0.06317301
-0.25269204 0.15161522 0.36640343 0.25269204 0.17688441 -0.31586504 0.13898061 -0.15161522
0.31586504 0.0 -0.51801866 0.06317301 0.49274945 0.025269203 0.26532662 -0.27796122
-0.27796122 0.025269203 -1.2760948 0.0 0.15161522 -0.07580761 -0.30323043 -0.27796122
-0.037903804 0.0 0.25269204 -0.037903804 0.13898061 0.025269203 -0.21478823 -0.22742283
0.07580761 -0.22742283 0.012634601 0.16424982 0.07580761 -0.32849964 -0.11371142 0.21478823
-0.11371142 0.11371142 -0.10107681 -0.18951902 0.41694185 -0.012634601 0.17688441 -0.16424982
-0.25269204 0.22742283 0.48011485 0.36640343 -0.17688441 -0.29059583 0.5053841 0.30323043
-0.40430725 -0.06317301 -0.16424982 -0.15161522 0.06317301 0.36640343 0.36640343 -0.06317301
-0.037903804 0.37903804 -0.050538406 0.21478823 -0.30323043 0.08844221 0.11371142 0.037903804
0.22742283 -0.17688441 0.6822685 -0.06317301 -0.45484567 0.35376883 -0.08844221 -0.21478823
-0.16424982 -0.31586504 1.4024408 0.15161522 0.36640343 0.0 0.8717875 -0.037903804
0.17688441 -0.20215362 0.13898061 0.31586504 0.32849964 -0.07580761 -0.40430725 0.31586504
0.39167264 0.24005742 0.6822685 0.35376883 0.22742283 -0.26532662 0.7454415 0.15161522
-0.9602297 -0.66963387 -0.32849964 0.24005742 -0.07580761 -0.26532662 -0.18951902 0.07580761
0.35376883 -0.07580761 0.30323043 -0.34113425 -0.26532662 -0.66963387 0.15161522 -0.15161522

std.constant2 i1 [1, 16] scale=0.00850243 zero_point=0
00000000: 21a5 8bca 5e1d ce42 9dce 1fb0 df54 2f81
0.2805802 -0.77372116 -0.99478436 -0.45913124 0.7992284 0.24657048 -0.42512152 0.5611604
-0.8417406 -0.42512152 0.26357535 -0.68019444 -0.2805802 0.71420413 0.3996142 -1.0798086
