tensorflow/lite/micro/examples/hello_world/hello_world.tflite (tflite, 2312 bytes, 3 tensors)

sequential_1/dense_2/MatMul i1 [16, 1] scale=0.0042242804 zero_point=0
0.4942408 0.11827985 0.071812764 -0.13095269 0.050691366 -0.5364836 -0.38440952 0.2788025
-0.008448561 -0.18164405 -0.18586834 -0.32949388 0.4097552 0.50691366 0.10560701 -0.13940126
00000000: 751c 11e1 0c81 a542 fed5 d4b2 6178 19df

sequential_1/dense_3/MatMul i1 [16, 16] scale=0.012634606 zero_point=0
-0.22742291 -0.050538424 0.0 -0.25269213 0.06317303 0.29059595 -0.2147883 -0.25269213
-0.32849976 -0.10107685 0.03790382 0.012634606 0.0 -0.07580764 -0.10107685 -0.13898067
-0.45484582 -0.26532674 0.49274963 0.25269213 -0.18951909 -0.4295766 -0.37903818 -0.46748042
-0.2021537 -0.4295766 0.6190957 0.07580764 0.025269212 -0.32849976 -0.22742291 -0.08844224
0.0 0.27796134 0.08844224 -0.4043074 -0.025269212 -0.012634606 -0.29059595 0.07580764
-0.31586516 -0.2147883 -1.604595 0.34113437 0.30323055 -0.27796134 -0.6949033 0.012634606
0.18951909 0.0 -0.48011503 -0.113711454 0.17688449 -0.25269213 0.24005751 0.3916728
0.050538424 0.24005751 -0.96023005 -0.32849976 -0.03790382 0.07580764 -0.89705706 -0.4043074
0.16424988 -0.25269213 -0.2021537 -0.4295766 -0.26532674 -0.113711454 0.06317303 0.48011503
0.32849976 -0.35376897 1.4024413 0.32849976 -0.27796134 0.37903818 0.6696341 -0.416942
0.32849976 -0.16424988 -0.18951909 0.31586516 0.18951909 0.03790382 0.34113437 -0.3916728
-0.4295766 0.24005751 -0.12634607 0.31586516 -0.012634606 -0.12634607 0.34113437 0.30323055
-0.2021537 0.35376897 -0.48011503 0.34113437 0.34113437 0.4043074 -0.34113437 0.32849976
-0.13898067 -0.012634606 -1.3392682 0.13898067 0.0 0.012634606 -0.6443649 -0.4295766
0.16424988 -0.12634607 0.27796134 -0.36640358 -0.24005751 -0.050538424 0.17688449 -0.29059595
-0.07580764 -0.26532674 1.1623838 -0.050538424 0.36640358 0.025269212 1.1497492 -0.37903818
-0.3916728 -0.13898067 0.26532674 -0.25269213 -0.15161528 0.0 0.24005751 0.06317303
-0.25269213 0.15161528 0.36640358 0.25269213 0.17688449 -0.31586516 0.13898067 -0.15161528
0.31586516 0.0 -0.51801884 0.06317303 0.49274963 0.025269212 0.26532674 -0.27796134
-0.27796134 0.025269212 -1.2760953 0.0 0.15161528 -0.07580764 -0.30323055 -0.27796134
-0.03790382 0.0 0.25269213 -0.03790382 0.13898067 0.025269212 -0.2147883 -0.22742291
0.07580764 -0.22742291 0.012634606 0.16424988 0.07580764 -0.32849976 -0.113711454 0.2147883
-0.113711454 0.113711454 -0.10107685 -0.18951909 0.416942 -0.012634606 0.17688449 -0.16424988
-0.25269213 0.22742291 0.48011503 0.36640358 -0.17688449 -0.29059595 0.50538427 0.30323055
-0.4043074 -0.06317303 -0.16424988 -0.15161528 0.06317303 0.36640358 0.36640358 -0.06317303
-0.03790382 0.37903818 -0.050538424 0.2147883 -0.30323055 0.08844224 0.113711454 0.03790382
0.22742291 -0.17688449 0.68226874 -0.06317303 -0.45484582 0.35376897 -0.08844224 -0.2147883
-0.16424988 -0.31586516 1.4024413 0.15161528 0.36640358 0.0 0.87178785 -0.03790382
0.17688449 -0.2021537 0.13898067 0.31586516 0.32849976 -0.07580764 -0.4043074 0.31586516
0.3916728 0.24005751 0.68226874 0.35376897 0.22742291 -0.26532674 0.74544173 0.15161528
-0.96023005 -0.6696341 -0.32849976 0.24005751 -0.07580764 -0.26532674 -0.18951909 0.07580764
0.35376897 -0.07580764 0.30323055 -0.34113437 -0.26532674 -0.6696341 0.15161528 -0.15161528
00000000: eefc 00ec 0517 efec e6f8 0301 00fa f8f5
00000010: dceb 2714 f1de e2db f0de 3106 02e6 eef9
00000020: 0016 07e0 feff e906 e7ef 811b 18ea c901
00000030: 0f00 daf7 0eec 131f 0413 b4e6 fd06 b9e0
00000040: 0dec f0de ebf7 0526 1ae4 6f1a ea1e 35df
00000050: 1af3 f119 0f03 1be1 de13 f619 fff6 1b18
00000060: f01c da1b 1b20 e51a f5ff 960b 0001 cdde
00000070: 0df6 16e3 edfc 0ee9 faeb 5cfc 1d02 5be2
00000080: e1f5 15ec f400 1305 ec0c 1d14 0ee7 0bf4
00000090: 1900 d705 2702 15ea ea02 9b00 0cfa e8ea
000000a0: fd00 14fd 0b02 efee 06ee 010d 06e6 f711
000000b0: f709 f8f1 21ff 0ef3 ec12 261d f2e9 2818
000000c0: e0fb f3f4 051d 1dfb fd1e fc11 e807 0903
000000d0: 12f2 36fb dc1c f9ef f3e7 6f0c 1d00 45fd
000000e0: 0ef0 0b19 1afa e019 1f13 361c 12eb 3b0c
000000f0: b4cb e613 faeb f106 1cfa 18e5 ebcb 0cf4

sequential_1/dense_4/MatMul i1 [1, 16] scale=0.008502445 zero_point=0
0.2805807 -0.7737225 -0.9947861 -0.45913205 0.79922986 0.24657091 -0.42512226 0.5611614
-0.8417421 -0.42512226 0.2635758 -0.6801956 -0.2805807 0.7142054 0.39961493 -1.0798105
00000000: 21a5 8bca 5e1d ce42 9dce 1fb0 df54 2f81
