tensorflow/lite/micro/examples/hello_world/hello_world_no_quant.tflite (tflite, 2788 bytes, 5 tensors)

dense_3/bias f4 [16]
0	0x00000000	0.0
1	0x3e3e23d3	0.18568353
2	0x3ed37fc3	0.41308412
3	0x3e7995de	0.24373576
4	0xbe98b95e	-0.29828924
5	0x00000000	0.0
6	0x3ed62209	0.41822842
7	0xbea1c13c	-0.3159274
8	0x3e4c4b50	0.19950604
9	0x3ec6900c	0.38781774
10	0xbd8b17c4	-0.06791642
11	0x3e3e581f	0.18588303
12	0x00000000	0.0
13	0xbea836d4	-0.3285433
14	0xbe878613	-0.26469478
15	0x3e55b680	0.208704

dense_2/bias f4 [16]
0	0x39d44e86	0.00040494296
1	0x3e9bff73	0.3046833
2	0xbe83ab09	-0.25716427
3	0x00000000	0.0
4	0x3ea99b53	0.33126315
5	0x00000000	0.0
6	0x00000000	0.0
7	0x3e39c119	0.18140067
8	0x00000000	0.0
9	0x00000000	0.0
10	0x3f6389c2	0.88882077
11	0x00000000	0.0
12	0x3e4380be	0.1909208
13	0xbe9034eb	-0.28165373
14	0xbed6f32a	-0.41982394
15	0x00000000	0.0

std.constant f4 [16, 1]
0	0x3efe1f1f	0.4963312
1	0x3df617fe	0.12016295
2	0x3d929ea1	0.07159162
3	0xbe04856e	-0.12941524
4	0x3d5604c9	0.052250657
5	0xbf0956fd	-0.5364836
6	0xbec41c88	-0.38303018
7	0x3e8e47fc	0.27789295
8	0xbc1d8500	-0.009614229
9	0xbe3b51ae	-0.18292877
10	0xbe3d0e3d	-0.18462463
11	0xbea9518e	-0.33070034
12	0x3ed24755	0.41070047
13	0x3f0149ab	0.50503033
14	0x3ddb2af3	0.10701551
15	0xbe0f65ec	-0.14003724

std.constant1 f4 [16, 16]
0	0xbe69b787	-0.22823916
1	0xbd57f1c0	-0.052720785
2	0xbbbf46c0	-0.0058372915
3	0xbe81e0e8	-0.25366902
4	0x3d788e20	0.060682416
5	0x3e92bc6f	0.28659388
6	0xbe5d405c	-0.21606582
7	0xbe829290	-0.25502443
8	0xbeaaf5b0	-0.3339057
9	0xbdced478	-0.10099119
10	0x3d105740	0.035239458
11	0x3c817160	0.015801132
12	0x3b10ff80	0.0022124946
13	0xbda3fae8	-0.08006841
14	0xbdc56040	-0.09637499
15	0xbe0c7ab4	-0.13718683
16	0xbee93448	-0.455477
17	0xbe89fcac	-0.26950586
18	0x3ef995a9	0.48746994
19	0x3e800915	0.2500693
20	0xbe40685e	-0.18789813
21	0xbedbebe1	-0.429534
22	0xbec53207	-0.3851473
23	0xbef109c8	-0.47077775
24	0xbe510646	-0.2041255
25	0xbed95816	-0.42450017
26	0x3f1f722f	0.62283605
27	0x3d9f7ee4	0.07787874
28	0x3cfd9201	0.03095341
29	0xbea8e86f	-0.32989833
30	0xbe6c628d	-0.23084469
31	0xbdb0fe3c	-0.08642241
32	0x3b89b3a3	0.0042023226
33	0x3e8eac24	0.27865708
34	0x3db21457	0.08695286
35	0xbed17481	-0.40909198
36	0xbca2c5a7	-0.019869639
37	0xbc84f480	-0.016229868
38	0xbe9598c4	-0.29218113
39	0x3d99b084	0.07504371
40	0xbea4e010	-0.32202196
41	0xbe5f6b29	-0.21818222
42	0xbfcd635d	-1.6045948
43	0x3eb07d3d	0.3447055
44	0x3e9be5c2	0.3044873
45	0xbe90c35f	-0.28274056
46	0xbf31fb1d	-0.69523793
47	0x3c027b80	0.007964015
48	0x3e40137d	0.18757434
49	0xbb1a9915	-0.002358978
50	0xbef47a2b	-0.47749457
51	0xbdec32ec	-0.1153315
52	0x3e34238f	0.1759169
53	0xbe839aac	-0.25703943
54	0x3e70dd46	0.23521909
55	0x3ec812ea	0.3907693
56	0x3d4d6758	0.050147384
57	0x3e75d86a	0.24008337
58	0xbf751678	-0.9573741
59	0xbea6258a	-0.32450515
60	0xbd1338f9	-0.035943005
61	0x3d9e3f8b	0.077269636
62	0xbf641c15	-0.8910535
63	0xbecf8059	-0.4052761
64	0x3e23131d	0.1592526
65	0xbe80268a	-0.25029403
66	0xbe4b4d95	-0.19853814
67	0xbedaf087	-0.42761633
68	0xbe87e493	-0.26541576
69	0xbde3ece4	-0.11129168
70	0x3d891ad0	0.06694567
71	0x3ef5d92b	0.4801725
72	0x3ea6ad65	0.32554165
73	0xbeb4d2ae	-0.35316986
74	0x3fb36d47	1.4017724
75	0x3ea878f1	0.3290477
76	0xbe8c4560	-0.2739668
77	0x3ec12ef0	0.37731123
78	0x3f2c6d5c	0.6735437
79	0xbed887a9	-0.42291
80	0x3ea50695	0.32231584
81	0xbe27d1d0	-0.16388631
82	0xbe470a48	-0.19437516
83	0x3ea336db	0.3187779
84	0x3e3da216	0.18518862
85	0x3d118cf8	0.03553483
86	0x3eb14593	0.34623393
87	0xbec84e61	-0.39122298
88	0xbedbf471	-0.42959931
89	0x3e7a421a	0.24439278
90	0xbe00ec80	-0.12590218
91	0x3ea23d25	0.31687275
92	0xbc822550	-0.015886933
93	0xbe016812	-0.12637356
94	0x3eab9a21	0.3351603
95	0x3e995b3b	0.29952416
96	0xbe48d9b8	-0.19614303
97	0x3eb5f974	0.3554188
98	0xbef6c4b4	-0.48196948
99	0x3eacd60d	0.33757058
100	0x3eab77c4	0.3348981
101	0x3ed1d9e1	0.4098654
102	0xbead7111	-0.33875325
103	0x3ea80261	0.32814315
104	0xbe0e080c	-0.13870257
105	0xbbd9f540	-0.0066515505
106	0xbfaaadce	-1.3334291
107	0x3e0ff292	0.14057377
108	0x3a0f630e	0.00054697774
109	0x3c0c9689	0.008580812
110	0xbf262b2b	-0.6490962
111	0xbedb0ab9	-0.42781618
112	0x3e297ed9	0.16552295
113	0xbdfa2860	-0.12214732
114	0x3e916c86	0.2840311
115	0xbeb9fe3d	-0.3632678
116	0xbe7b7aa3	-0.24558501
117	0xbd49f818	-0.049308866
118	0x3e2edb56	0.17075858
119	0xbe977a01	-0.2958527
120	0xbd8f4448	-0.069954455
121	0xbe849fac	-0.2590307
122	0x3f95715e	1.1675222
123	0xbd3dabc8	-0.0463064
124	0x3ebd9f3a	0.37035543
125	0x3ccd22cf	0.025041012
126	0x3f92c587	1.146653
127	0xbec05050	-0.37561274
128	0xbec8ae1e	-0.3919534
129	0xbe09ba6d	-0.13450022
130	0x3e863790	0.26214266
131	0xbe8077a0	-0.25091267
132	0xbe1e0186	-0.15430269
133	0xbbc0a580	-0.005879104
134	0x3e7b1716	0.24520525
135	0x3d8b0857	0.067887
136	0xbe82424c	-0.25441206
137	0x3e1d7d92	0.15379933
138	0x3ebd0f84	0.369259
139	0x3e82b86d	0.2553133
140	0x3e329246	0.17438611
141	0xbea2f61e	-0.31828398
142	0x3e08506d	0.1331193
143	0xbe1aae72	-0.15105608
144	0x3ea10888	0.3145182
145	0xbadf499d	-0.0017035488
146	0xbf0427ab	-0.5162303
147	0x3d72a308	0.05923751
148	0x3efb8ff1	0.49133256
149	0x3cfb9e20	0.030715048
150	0x3e876c37	0.2644975
151	0xbe90221e	-0.2815103
152	0xbe8f1713	-0.27947292
153	0x3ce3eb30	0.027822107
154	0xbfa31d03	-1.2743229
155	0xbbab40c0	-0.0052262247
156	0x3e1cc28a	0.15308586
157	0xbd991e21	-0.0747645
158	0xbe98c816	-0.29840153
159	0xbe914ae2	-0.28377444
160	0xbd0598dd	-0.032616485
161	0x3ba0e89e	0.0049105426
162	0x3e833ae7	0.25630876
163	0xbd345550	-0.044026673
164	0x3e112604	0.14174658
165	0x3cb70690	0.022341996
166	0xbe564474	-0.2092455
167	0xbe62d876	-0.22152886
168	0x3d9d8cdc	0.076928824
169	0xbe6b247a	-0.22963133
170	0x3c0b49c5	0.008501475
171	0x3e2b3ee2	0.16723207
172	0x3d996c84	0.07491401
173	0xbea6016c	-0.3242296
174	0xbdf4934e	-0.11942159
175	0x3e59bf1a	0.21264306
176	0xbde91f81	-0.11382962
177	0x3de76c8f	0.11300003
178	0xbdd447e1	-0.10365272
179	0xbe4747ef	-0.19461034
180	0x3ed47afa	0.41500074
181	0xbc78c780	-0.015184283
182	0x3e300dba	0.17192736
183	0xbe2b3973	-0.16721134
184	0xbe83b544	-0.25724232
185	0x3e63204a	0.22180286
186	0x3ef76849	0.4832175
187	0x3ebb9cff	0.36643216
188	0xbe32f941	-0.17477895
189	0xbe971cc8	-0.29514146
190	0x3f01941a	0.5061661
191	0x3e9c3949	0.30512455
192	0xbed05900	-0.40692902
193	0xbd723ca0	-0.059139848
194	0xbe28b062	-0.16473535
195	0xbe1b823e	-0.15186402
196	0x3d748ce0	0.05970466
197	0x3eb86529	0.3601468
198	0x3ebe02c1	0.37111476
199	0xbd71d408	-0.0590401
200	0xbd2d1b28	-0.042262226
201	0x3ec11cb9	0.37717226
202	0xbd56a1f8	-0.05240056
203	0x3e60ab42	0.2194033
204	0xbe9cb376	-0.30605668
205	0x3da9a704	0.08283809
206	0x3de98a64	0.11403349
207	0x3d29d8f8	0.041466683
208	0x3e670bac	0.22563046
209	0xbe320a41	-0.17386724
210	0x3f2e2cd4	0.6803715
211	0xbd8ccb7c	-0.06874749
212	0xbee76ef7	-0.45201847
213	0x3eb22c45	0.347994
214	0xbdb1b278	-0.08676618
215	0xbe59ba96	-0.21262583
216	0xbe2ad88e	-0.16684172
217	0xbea480d7	-0.32129547
218	0x3fb2c2d1	1.3965703
219	0x3e1be296	0.15223154
220	0x3ebc53a8	0.36782575
221	0xbb166508	-0.0022948403
222	0x3f5f7228	0.87283564
223	0xbd2205f8	-0.039556473
224	0x3e2f66b3	0.1712902
225	0xbe495e21	-0.19664814
226	0x3e084dd6	0.13310942
227	0x3ea476bb	0.32121834
228	0x3ea91471	0.33023408
229	0xbd90b280	-0.07065296
230	0xbed1e616	-0.40995854
231	0x3e9f9ed3	0.3117586
232	0x3ec5dcd3	0.38645038
233	0x3e7af132	0.24506071
234	0x3f2e4d20	0.68086433
235	0x3eb74eaf	0.35802218
236	0x3e692a17	0.22769962
237	0xbe84db3f	-0.25948521
238	0x3f406b7c	0.7516401
239	0x3e176e02	0.14788058
240	0xbf761d9d	-0.96138936
241	0xbf2abedd	-0.66697484
242	0xbea8b03d	-0.3294696
243	0x3e725cd2	0.2366822
244	0xbd9c13d6	-0.07620971
245	0xbe89295a	-0.2678936
246	0xbe414145	-0.18872555
247	0x3d92efc2	0.071746364
248	0x3eb253eb	0.3482965
249	0xbd9bc1f8	-0.07605356
250	0x3e9d418d	0.30714074
251	0xbeafe5ca	-0.34355003
252	0xbe85cd67	-0.26133272
253	0xbf2bd83b	-0.67126817
254	0x3e1d812b	0.15381305
255	0xbe214ad2	-0.15751198

std.constant2 f4 [1, 16]
0	0x3e8ed42e	0.27896255
1	0xbf464c2b	-0.77459973
2	0xbf7e0f01	-0.99241644
3	0xbeed2b64	-0.46322167
4	0x3f4b8440	0.7949867
5	0x3e78814c	0.24268073
6	0xbeda42e8	-0.4262917
7	0x3f0f3ade	0.559492
8	0xbf56901f	-0.8381366
9	0xbed9bd9c	-0.42527473
10	0x3e862393	0.26199016
11	0xbf2ecdac	-0.6828258
12	0xbe8fc65e	-0.2808103
13	0x3f3678d7	0.71278137
14	0x3ecc0323	0.39846143
15	0xbf8a3563	-1.0797542
