tensorflow/lite/micro/models/keyword_scrambled_8bit.tflite (tflite, 29632 bytes, 19 tensors)

 i1 [64, 96] scale=0.0091712065 zero_point=0
000000 c5 d7 14 84 f8 cf 9b f4 b7 6f 47 90 47 30 80 4b
       -0.54110116 -0.37601948 0.18342413 -1.1372296 -0.07336965 -0.44938913 -0.9262919 -0.11005448 -0.6694981 1.018004 0.65115565 -1.0271752 0.65115565 0.4402179 -1.1739144 0.68784046
000010 9e 32 25 a9 f1 33 b5 de a1 68 f4 e2 85 1f 07 2f
       -0.89877826 0.45856032 0.33933464 -0.79789495 -0.1375681 0.46773154 -0.68784046 -0.311821 -0.87126464 0.95380545 -0.11005448 -0.2751362 -1.1280584 0.2843074 0.06419845 0.4310467
000020 cc 00 fc aa 7c a6 20 61 71 7a 48 e5 2e 29 a3 fa
       -0.47690272 0.0 -0.036684826 -0.78872377 1.1372296 -0.8254086 0.2934786 0.889607 1.0363463 1.1188872 0.66032684 -0.24762258 0.4218755 0.37601948 -0.8529222 -0.05502724
000030 37 9a 95 3f aa 68 93 e3 2e c5 a2 7b 94 5e 60 5f
       0.50441635 -0.9354631 -0.98131907 0.577786 -0.78872377 0.95380545 -0.9996615 -0.26596498 0.4218755 -0.54110116 -0.8620934 1.1280584 -0.9904903 0.8620934 0.8804358 0.87126464
000040 10 85 f3 23 2d 42 4c 13 29 c8 8d 78 6e d6 8c e6
       0.1467393 -1.1280584 -0.11922568 0.32099223 0.4127043 0.60529965 0.6970117 0.17425293 0.37601948 -0.5135876 -1.0546887 1.1005448 1.0088327 -0.38519067 -1.0638599 -0.23845136
000050 fc b6 2a a6 3b f9 ab 61 7c 08 8a 3b 70 be 57 aa
       -0.036684826 -0.6786693 0.38519067 -0.8254086 0.54110116 -0.06419845 -0.7795526 0.889607 1.1372296 0.07336965 -1.0822023 0.54110116 1.0271752 -0.60529965 0.79789495 -0.78872377
000060 da 1f 33 4a 70 17 25 0d 3f 60 3d c8 2e bd 3b 12
       -0.34850585 0.2843074 0.46773154 0.6786693 1.0271752 0.21093775 0.33933464 0.11922568 0.577786 0.8804358 0.5594436 -0.5135876 0.4218755 -0.61447084 0.54110116 0.16508171
000070 0b 63 5e 3f f5 6b 1f 0b d9 33 85 23 71 24 9a b3
       0.100883275 0.90794945 0.8620934 0.577786 -0.100883275 0.98131907 0.2843074 0.100883275 -0.35767704 0.46773154 -1.1280584 0.32099223 1.0363463 0.33016342 -0.9354631 -0.7061829
000080 df 5c 1f ef 14 33 c8 66 85 b7 f0 56 68 1d 51 52
       -0.30264983 0.843751 0.2843074 -0.1559105 0.18342413 0.46773154 -0.5135876 0.9354631 -1.1280584 -0.6694981 -0.1467393 0.78872377 0.95380545 0.26596498 0.7428677 0.75203896
000090 af 80 3c e2 59 06 f1 d1 9f b6 c6 80 4e 06 ea 28
       -0.7428677 -1.1739144 0.5502724 -0.2751362 0.8162374 0.05502724 -0.1375681 -0.4310467 -0.889607 -0.6786693 -0.53192997 -1.1739144 0.7153541 0.05502724 -0.20176655 0.36684826
0000a0 ab 17 8f 45 7a f6 b4 93 b7 43 9e c6 d4 29 00 62
       -0.7795526 0.21093775 -1.0363463 0.6328133 1.1188872 -0.091712065 -0.6970117 -0.9996615 -0.6694981 0.61447084 -0.89877826 -0.53192997 -0.4035331 0.37601948 0.0 0.89877826
0000b0 ab 51 7a 72 e5 c1 d4 10 cd d6 17 54 e4 20 84 50
       -0.7795526 0.7428677 1.1188872 1.0455176 -0.24762258 -0.577786 -0.4035331 0.1467393 -0.46773154 -0.38519067 0.21093775 0.77038133 -0.2567938 0.2934786 -1.1372296 0.7336965
0000c0 e4 f9 00 13 fd a6 9f ef 19 d4 60 2a 42 07 cd d5
       -0.2567938 -0.06419845 0.0 0.17425293 -0.02751362 -0.8254086 -0.889607 -0.1559105 0.22928016 -0.4035331 0.8804358 0.38519067 0.60529965 0.06419845 -0.46773154 -0.39436188
0000d0 a1 01 6d 07 01 32 61 3c 65 9a 8f 5d 33 f3 cb 29
       -0.87126464 0.0091712065 0.9996615 0.06419845 0.0091712065 0.45856032 0.889607 0.5502724 0.9262919 -0.9354631 -1.0363463 0.8529222 0.46773154 -0.11922568 -0.48607394 0.37601948
0000e0 0b 8c e7 3b 83 44 b1 3a 4f 8e 09 15 14 69 84 a1
       0.100883275 -1.0638599 -0.22928016 0.54110116 -1.1464008 0.623642 -0.72452533 0.53192997 0.72452533 -1.0455176 0.082540855 0.19259533 0.18342413 0.9629767 -1.1372296 -0.87126464
0000f0 bb 15 fd ea de be 5b 6a c0 95 04 46 4d 8a aa ac
       -0.6328133 0.19259533 -0.02751362 -0.20176655 -0.311821 -0.60529965 0.83457977 0.9721479 -0.5869572 -0.98131907 0.036684826 0.64198446 0.7061829 -1.0822023 -0.78872377 -0.77038133

 i1 [64, 8] scale=0.014938734 zero_point=0
000000 17 88 f8 da 3d 57 83 63 76 a0 5c 13 1a 00 64 30
       0.3435909 -1.7926481 -0.11950987 -0.5676719 0.91126275 1.2996699 -1.8673416 1.4789346 1.7627705 -1.4341184 1.3743635 0.28383595 0.38840708 0.0 1.4938734 0.7170592
000010 19 fd 2e 9c 64 b6 da 51 7b 55 e8 c4 67 1b da fc
       0.37346834 -0.0448162 0.6871818 -1.4938734 1.4938734 -1.1054662 -0.5676719 1.2100375 1.8374642 1.2697923 -0.3585296 -0.89632404 1.5386896 0.4033458 -0.5676719 -0.059754934
000020 4c d0 27 58 56 a1 52 d2 b8 d8 d5 94 69 cf d0 d5
       1.1353438 -0.7170592 0.5826106 1.3146086 1.284731 -1.4191797 1.2249762 -0.6871818 -1.0755888 -0.5975493 -0.6423655 -1.6133832 1.568567 -0.73199797 -0.7170592 -0.6423655
000030 72 eb 2b 05 f3 12 a6 ac a6 f7 90 24 1f 22 97 5e
       1.7030156 -0.3137134 0.6423655 0.074693665 -0.19420354 0.2688972 -1.344486 -1.2548536 -1.344486 -0.1344486 -1.6731381 0.5377944 0.46310073 0.5079169 -1.568567 1.404241
000040 8b 7c 2c 30 61 11 9b df 83 2b 10 09 42 77 2b d9
       -1.7478318 1.8524029 0.6573043 0.7170592 1.4490571 0.25395846 -1.5088121 -0.49297822 -1.8673416 0.6423655 0.23901974 0.1344486 0.98595643 1.7777092 0.6423655 -0.5826106
000050 43 b3 27 69 75 f2 2e 72 ed 50 ea bf 7f 47 39 9c
       1.0008951 -1.1502825 0.5826106 1.568567 1.7478318 -0.20914227 0.6871818 1.7030156 -0.28383595 1.1950986 -0.32865214 -0.97101766 1.8972192 1.0606501 0.8515078 -1.4938734
000060 f8 1e ce 6f dd e8 40 c5 14 01 7e bb 0f 43 2d 36
       -0.11950987 0.44816202 -0.7469367 1.6581994 -0.5228557 -0.3585296 0.95607895 -0.88138527 0.29877466 0.014938734 1.8822805 -1.0307726 0.22408101 1.0008951 0.672243 0.8066916
000070 70 54 c6 be 69 24 d1 65 49 77 f0 d2 99 b4 50 8d
       1.6731381 1.2548536 -0.86644655 -0.98595643 1.568567 0.5377944 -0.7021205 1.5088121 1.0905275 1.7777092 -0.23901974 -0.6871818 -1.5386896 -1.1353438 1.1950986 -1.7179544
000080 98 cb bf 7a 7c 65 d3 46 cf 90 69 56 15 a2 ae 11
       -1.5536283 -0.7917529 -0.97101766 1.8225255 1.8524029 1.5088121 -0.672243 1.0457114 -0.73199797 -1.6731381 1.568567 1.284731 0.3137134 -1.404241 -1.2249762 0.25395846
000090 94 60 f9 45 17 54 6b bd eb d8 74 41 5c f6 49 0a
       -1.6133832 1.4341184 -0.104571134 1.0307726 0.3435909 1.2548536 1.5984445 -1.0008951 -0.3137134 -0.5975493 1.7328931 0.97101766 1.3743635 -0.14938733 1.0905275 0.14938733
0000a0 14 ce 43 1f 67 c3 6c f4 01 ce 3f 85 ed 19 a1 f7
       0.29877466 -0.7469367 1.0008951 0.46310073 1.5386896 -0.91126275 1.6133832 -0.1792648 0.014938734 -0.7469367 0.94114023 -1.8374642 -0.28383595 0.37346834 -1.4191797 -0.1344486
0000b0 1b f8 46 45 b4 e9 a7 1f 2a 65 00 2a d3 8b 6a 3b
       0.4033458 -0.11950987 1.0457114 1.0307726 -1.1353438 -0.3435909 -1.3295473 0.46310073 0.6274268 1.5088121 0.0 0.6274268 -0.672243 -1.7478318 1.5835057 0.88138527
0000c0 ac 78 ab f4 c8 62 76 c8 24 f8 f8 08 e0 64 00 64
       -1.2548536 1.7926481 -1.2697923 -0.1792648 -0.8365691 1.4639959 1.7627705 -0.8365691 0.5377944 -0.11950987 -0.11950987 0.11950987 -0.47803947 1.4938734 0.0 1.4938734
0000d0 74 9e 55 2e f8 c9 c8 58 0e 1f 27 32 fd 30 24 68
       1.7328931 -1.4639959 1.2697923 0.6871818 -0.11950987 -0.82163036 -0.8365691 1.3146086 0.20914227 0.46310073 0.5826106 0.7469367 -0.0448162 0.7170592 0.5377944 1.5536283
0000e0 c8 a4 8c 1c f3 a7 32 ae 84 0a 8a 1e 11 ce b2 02
       -0.8365691 -1.3743635 -1.7328931 0.41828454 -0.19420354 -1.3295473 0.7469367 -1.2249762 -1.8524029 0.14938733 -1.7627705 0.44816202 0.25395846 -0.7469367 -1.1652212 0.029877467
0000f0 f1 b3 5f 7d 5e 54 8c e0 eb 46 6e 8a 5f 3f 71 47
       -0.22408101 -1.1502825 1.4191797 1.8673416 1.404241 1.2548536 -1.7328931 -0.47803947 -0.3137134 1.0457114 1.6432607 -1.7627705 1.4191797 0.94114023 1.6880769 1.0606501

 i1 [16, 64] scale=0.0059776115 zero_point=0
000000 e7 97 8d bb 14 d6 10 15 64 00 4a 2c 67 ca d0 a1
       -0.14944029 -0.6276492 -0.6874253 -0.4124552 0.11955223 -0.25105968 0.095641784 0.12552984 0.59776115 0.0 0.44234326 0.2630149 0.615694 -0.322791 -0.28692535 -0.5678731
000010 37 33 7b a1 2a 5b 5b 78 f8 2f dd 76 ab 8a c3 e3
       0.32876864 0.30485818 0.73524624 -0.5678731 0.25105968 0.54396266 0.54396266 0.7173134 -0.047820892 0.28094774 -0.2092164 0.70535815 -0.508097 -0.70535815 -0.3646343 -0.17335074
000020 37 00 d1 29 b0 96 1d 18 be 5d 32 7e b7 11 a9 78
       0.32876864 0.0 -0.28094774 0.24508207 -0.47820893 -0.6336268 0.17335074 0.14346267 -0.39452237 0.55591786 0.29888058 0.7531791 -0.43636563 0.10161939 -0.5200522 0.7173134
000030 72 a2 2d 29 1c 32 a4 ff c7 ce fe af b7 17 43 e5
       0.6814477 -0.5618955 0.2689925 0.24508207 0.16737312 0.29888058 -0.5499403 -0.0059776115 -0.34072384 -0.29888058 -0.011955223 -0.48418653 -0.43636563 0.13748507 0.40049997 -0.1613955
000040 2f ae 45 d3 af 10 e3 d0 58 b6 ee ee 7a b5 06 70
       0.28094774 -0.49016413 0.4124552 -0.2689925 -0.48418653 0.095641784 -0.17335074 -0.28692535 0.5260298 -0.44234326 -0.10759701 -0.10759701 0.7292686 -0.44832087 0.03586567 0.6694925
000050 26 7e 2d 5b d5 e1 7b 9a 37 02 fc 1d 08 4f 1a f5
       0.22714923 0.7531791 0.2689925 0.54396266 -0.25703728 -0.18530595 0.73524624 -0.60971636 0.32876864 0.011955223 -0.023910446 0.17335074 0.047820892 0.4722313 0.1554179 -0.06575373
000060 44 63 de 4b 14 68 54 0b 6a 22 4e 02 65 cd f4 04
       0.40647757 0.5917835 -0.20323879 0.44832087 0.11955223 0.6216716 0.50211936 0.06575373 0.6336268 0.20323879 0.4662537 0.011955223 0.6037388 -0.30485818 -0.07173134 0.023910446
000070 ec cc 8a 0b e0 59 f8 65 25 63 ed 0f a6 c5 3c cb
       -0.11955223 -0.3108358 -0.70535815 0.06575373 -0.19128357 0.5320074 -0.047820892 0.6037388 0.22117163 0.5917835 -0.11357462 0.089664176 -0.537985 -0.35267907 0.3586567 -0.3168134
000080 5d c5 d8 9f 5a d3 88 3d d4 2c b3 04 f6 97 c7 e2
       0.55591786 -0.35267907 -0.23910446 -0.5798283 0.537985 -0.2689925 -0.7173134 0.3646343 -0.2630149 0.2630149 -0.4602761 0.023910446 -0.059776116 -0.6276492 -0.34072384 -0.17932835
000090 fd b6 f4 7d 0d b9 75 7e 9d 81 dc df 8e 90 40 0c
       -0.017932834 -0.44234326 -0.07173134 0.74720144 0.07770895 -0.42441043 0.6993806 0.7531791 -0.5917835 -0.75915664 -0.21519402 -0.19726118 -0.6814477 -0.6694925 0.38256714 0.07173134
0000a0 7b 45 fe 68 fd ff 1c f1 16 09 33 74 27 7b 4d d9
       0.73524624 0.4124552 -0.011955223 0.6216716 -0.017932834 -0.0059776115 0.16737312 -0.089664176 0.13150746 0.053798504 0.30485818 0.69340295 0.23312685 0.73524624 0.4602761 -0.23312685
0000b0 9b 48 6d 84 eb 96 8f 4b 82 73 d5 69 7d 14 45 8c
       -0.6037388 0.43038803 0.65155965 -0.7412238 -0.12552984 -0.6336268 -0.6754701 0.44832087 -0.7531791 0.6874253 -0.25703728 0.6276492 0.74720144 0.11955223 0.4124552 -0.69340295
0000c0 b8 71 87 70 09 26 fc 89 6f 0f b6 c1 d6 e1 bf db
       -0.43038803 0.6754701 -0.723291 0.6694925 0.053798504 0.22714923 -0.023910446 -0.7113358 0.66351485 0.089664176 -0.44234326 -0.37658954 -0.25105968 -0.18530595 -0.38854474 -0.22117163
0000d0 85 8f 94 ad 94 01 01 bb 3f c0 b5 ff f5 bb 4f 50
       -0.73524624 -0.6754701 -0.645582 -0.49614176 -0.645582 0.0059776115 0.0059776115 -0.4124552 0.37658954 -0.38256714 -0.44832087 -0.0059776115 -0.06575373 -0.4124552 0.4722313 0.47820893
0000e0 09 ca 7d 36 47 66 9a 8c ee 84 73 9a 1f 49 75 b4
       0.053798504 -0.322791 0.74720144 0.322791 0.42441043 0.60971636 -0.60971636 -0.69340295 -0.10759701 -0.7412238 0.6874253 -0.60971636 0.18530595 0.43636563 0.6993806 -0.45429847
0000f0 ab 66 f7 3b fe 81 67 c9 d1 16 de 1f c2 24 ed 6a
       -0.508097 0.60971636 -0.053798504 0.35267907 -0.011955223 -0.75915664 0.615694 -0.32876864 -0.28094774 0.13150746 -0.20323879 0.18530595 -0.3706119 0.21519402 -0.11357462 0.6336268

 i1 [64, 16] scale=0.005183118 zero_point=0
000000 77 21 9b 44 1c d9 8c 95 8a f1 cb 82 ac c1 26 31
       0.616791 0.17104289 -0.5234949 0.352452 0.1451273 -0.2021416 -0.6012417 -0.5545936 -0.6116079 -0.07774677 -0.27470526 -0.65307283 -0.43538192 -0.32653642 0.19695848 0.25397277
000010 f2 22 41 ab bb 23 d3 8d cc 5c 9d 9b 1d 9c 4d f3
       -0.07256365 0.176226 0.33690268 -0.44056502 -0.35763514 0.18140912 -0.2332403 -0.59605855 -0.26952213 0.47684684 -0.5131287 -0.5234949 0.15031043 -0.5183118 0.3991001 -0.06738053
000020 62 de 15 6a 94 8d 24 e7 52 8d 2a a4 1d 54 5a da
       0.50794554 -0.176226 0.10884548 0.5494105 -0.5597767 -0.59605855 0.18659225 -0.12957795 0.42501566 -0.59605855 0.21769096 -0.47684684 0.15031043 0.43538192 0.4664806 -0.19695848
000030 af ab 05 27 4b bb b4 da 0c b9 20 b3 af 4a eb 37
       -0.41983256 -0.44056502 0.02591559 0.2021416 0.38873383 -0.35763514 -0.39391696 -0.19695848 0.062197417 -0.36800137 0.16585977 -0.3991001 -0.41983256 0.38355073 -0.10884548 0.2850715
000040 e5 43 e4 c1 f6 9e f8 6c d8 a1 0c f9 d1 4b 96 a0
       -0.13994418 0.3472689 -0.1451273 -0.32653642 -0.05183118 -0.50794554 -0.041464943 0.5597767 -0.20732471 -0.4923962 0.062197417 -0.036281824 -0.24360654 0.38873383 -0.5494105 -0.49757934
000050 6d 38 64 41 d3 14 fb ad 89 a9 f7 36 01 0f be 8e
       0.5649599 0.2902546 0.5183118 0.33690268 -0.2332403 0.10366236 -0.02591559 -0.4301988 -0.616791 -0.45093125 -0.046648063 0.27988836 0.005183118 0.07774677 -0.34208578 -0.59087545
000060 d7 76 c6 70 22 32 8b 08 ca 95 bf cf 5e b8 c0 3f
       -0.21250783 0.6116079 -0.30062085 0.5805092 0.176226 0.2591559 -0.6064248 0.041464943 -0.27988836 -0.5545936 -0.33690268 -0.25397277 0.48721308 -0.3731845 -0.33171955 0.32653642
000070 d9 aa 84 ab 30 5b e3 7a 61 32 e5 54 01 5e b6 1c
       -0.2021416 -0.44574815 -0.64270663 -0.44056502 0.24878967 0.47166374 -0.15031043 0.6323404 0.50276244 0.2591559 -0.13994418 0.43538192 0.005183118 0.48721308 -0.38355073 0.1451273
000080 9c 78 52 2a a7 f5 29 a6 0f 14 a5 3a 34 d4 f5 c2
       -0.5183118 0.6219742 0.42501566 0.21769096 -0.46129748 -0.057014298 0.21250783 -0.4664806 0.07774677 0.10366236 -0.47166374 0.30062085 0.26952213 -0.22805719 -0.057014298 -0.32135332
000090 b2 8d 12 7b 8a 64 00 fd 02 0e 02 26 5a b9 eb fd
       -0.4042832 -0.59605855 0.093296126 0.63752353 -0.6116079 0.5183118 0.0 -0.015549354 0.010366236 0.07256365 0.010366236 0.19695848 0.4664806 -0.36800137 -0.10884548 -0.015549354
0000a0 30 ce 51 ec 5f bc ee 53 21 ec 0e ee c4 28 1a ec
       0.24878967 -0.2591559 0.41983256 -0.10366236 0.4923962 -0.352452 -0.093296126 0.4301988 0.17104289 -0.10366236 0.07256365 -0.093296126 -0.3109871 0.20732471 0.13476107 -0.10366236
0000b0 2a 39 4e e1 50 11 3f 16 dd bf af 3e be d4 fe 34
       0.21769096 0.29543772 0.4042832 -0.16067666 0.41464943 0.088113 0.32653642 0.114028595 -0.18140912 -0.33690268 -0.41983256 0.32135332 -0.34208578 -0.22805719 -0.010366236 0.26952213
0000c0 1e 62 3f 5a ea 05 fc d5 45 08 47 ce 38 3f 75 7e
       0.15549354 0.50794554 0.32653642 0.4664806 -0.114028595 0.02591559 -0.020732472 -0.22287408 0.35763514 0.041464943 0.36800137 -0.2591559 0.2902546 0.32653642 0.6064248 0.65307283
0000d0 0c 3a 2a 14 a7 61 ba 3a a1 41 a2 72 19 fa 33 43
       0.062197417 0.30062085 0.21769096 0.10366236 -0.46129748 0.50276244 -0.36281824 0.30062085 -0.4923962 0.33690268 -0.48721308 0.59087545 0.12957795 -0.031098709 0.264339 0.3472689
0000e0 a7 f4 4e 5b f9 b1 45 16 57 8e b1 ad 7d 88 d3 93
       -0.46129748 -0.062197417 0.4042832 0.47166374 -0.036281824 -0.40946633 0.35763514 0.114028595 0.45093125 -0.59087545 -0.40946633 -0.4301988 0.64788973 -0.6219742 -0.2332403 -0.5649599
0000f0 a2 08 f3 96 4d 84 63 08 fa 9d f3 04 33 bd 7e 7a
       -0.48721308 0.041464943 -0.06738053 -0.5494105 0.3991001 -0.64270663 0.5131287 0.041464943 -0.031098709 -0.5131287 -0.06738053 0.020732472 0.264339 -0.3472689 0.65307283 0.6323404

 i1 [64, 8] scale=0.0068974 zero_point=0
000000 22 58 24 89 c8 6a 2a a7 3f 04 53 4e 07 41 4e 5f
       0.2345116 0.6069712 0.24830641 -0.8207906 -0.3862544 0.7311244 0.2896908 -0.6138686 0.43453622 0.0275896 0.5724842 0.5379972 0.0482818 0.448331 0.5379972 0.655253
000010 95 5f 6e 14 5b a7 a7 d3 5a a2 95 4a c8 e9 3c 5a
       -0.7380218 0.655253 0.758714 0.137948 0.62766343 -0.6138686 -0.6138686 -0.310383 0.620766 -0.6483556 -0.7380218 0.5104076 -0.3862544 -0.1586402 0.41384402 0.620766
000020 84 50 bc e1 9c 7a 16 e5 c7 04 9d 60 2e 7d b3 77
       -0.8552776 0.551792 -0.4690232 -0.2138194 -0.68974 0.8414828 0.1517428 -0.18622981 -0.39315182 0.0275896 -0.6828426 0.6621504 0.3172804 0.862175 -0.5310998 0.8207906
000030 5d 86 2e ac 57 2a 31 26 23 6e cc 7f b8 36 29 a9
       0.6414582 -0.8414828 0.3172804 -0.5793816 0.6000738 0.2896908 0.3379726 0.2621012 0.241409 0.758714 -0.3586648 0.8759698 -0.49661282 0.37245962 0.2827934 -0.6000738
000040 a8 d9 c6 75 ee 16 23 27 0f e1 b0 3d 91 3a 26 4a
       -0.6069712 -0.2689986 -0.4000492 0.8069958 -0.124153204 0.1517428 0.241409 0.2689986 0.103461005 -0.2138194 -0.551792 0.4207414 -0.7656114 0.4000492 0.2621012 0.5104076
000050 60 72 14 f9 3c 66 66 e8 7d 4a 6f 7e 63 58 6a 28
       0.6621504 0.78630364 0.137948 -0.0482818 0.41384402 0.70353484 0.70353484 -0.1655376 0.862175 0.5104076 0.7656114 0.86907244 0.6828426 0.6069712 0.7311244 0.275896
000060 78 50 ef 3b 9d eb b6 4b 5d 55 80 84 97 9b 74 4b
       0.82768804 0.551792 -0.1172558 0.4069466 -0.6828426 -0.1448454 -0.5104076 0.517305 0.6414582 0.58627903 -0.8828672 -0.8552776 -0.724227 -0.6966374 0.8000984 0.517305
000070 5c 09 1d e7 57 fc 40 3f a9 bd df 61 2a 89 62 51
       0.6345608 0.062076602 0.2000246 -0.172435 0.6000738 -0.0275896 0.4414336 0.43453622 -0.6000738 -0.4621258 -0.22761421 0.66904783 0.2896908 -0.8207906 0.6759452 0.5586894
000080 fc 24 ee ee 97 10 ca b6 0e 8e 71 67 2a 79 4f c4
       -0.0275896 0.24830641 -0.124153204 -0.124153204 -0.724227 0.1103584 -0.37245962 -0.5104076 0.0965636 -0.78630364 0.7794062 0.71043223 0.2896908 0.8345854 0.54489464 -0.41384402
000090 e6 3e 27 c2 9b 85 fd de fb 58 75 f3 1c 31 a2 56
       -0.1793324 0.4276388 0.2689986 -0.4276388 -0.6966374 -0.8483802 -0.0206922 -0.2345116 -0.034487 0.6069712 0.8069958 -0.0896662 0.1931272 0.3379726 -0.6483556 0.5931764
0000a0 3e dc 24 f4 4f cb 5a 1a 77 5c 28 d1 5a 55 a9 8c
       0.4276388 -0.24830641 0.24830641 -0.0827688 0.54489464 -0.3655622 0.620766 0.1793324 0.8207906 0.6345608 0.275896 -0.3241778 0.620766 0.58627903 -0.6000738 -0.8000984
0000b0 b5 dd 77 93 58 d8 2f 7d 5a 67 a1 95 0a d2 6a 93
       -0.517305 -0.241409 0.8207906 -0.75181663 0.6069712 -0.275896 0.3241778 0.862175 0.620766 0.71043223 -0.655253 -0.7380218 0.068974 -0.3172804 0.7311244 -0.75181663
0000c0 a6 f0 5f 7f 0a 29 db 1d 8c a7 12 0a f4 c9 cd 70
       -0.620766 -0.1103584 0.655253 0.8759698 0.068974 0.2827934 -0.2552038 0.2000246 -0.8000984 -0.6138686 0.124153204 0.068974 -0.0827688 -0.379357 -0.35176742 0.7725088
0000d0 d1 bd 48 d4 9a bb bb 24 bf 52 25 b9 75 c2 17 36
       -0.3241778 -0.4621258 0.49661282 -0.3034856 -0.70353484 -0.47592062 -0.47592062 0.24830641 -0.448331 0.5655868 0.2552038 -0.4897154 0.8069958 -0.4276388 0.1586402 0.37245962
0000e0 6f 4a c0 53 6d 38 fb 7a 60 c8 5d 03 c1 1c 0c 31
       0.7656114 0.5104076 -0.4414336 0.5724842 0.75181663 0.3862544 -0.034487 0.8414828 0.6621504 -0.3862544 0.6414582 0.0206922 -0.43453622 0.1931272 0.0827688 0.3379726
0000f0 f0 59 ed 0a 5f 84 f2 89 6c b4 d5 24 2d 2a da be
       -0.1103584 0.6138686 -0.1310506 0.068974 0.655253 -0.8552776 -0.0965636 -0.8207906 0.74491924 -0.5242024 -0.2965882 0.24830641 0.310383 0.2896908 -0.2621012 -0.45522842

 i1 [16, 64] scale=0.0059727393 zero_point=0
000000 4e 46 60 4c 63 cc 07 36 8c f2 d1 93 7a 51 49 15
       0.46587366 0.41809174 0.573383 0.45392817 0.5913012 -0.31058246 0.041809175 0.32252792 -0.6928378 -0.08361835 -0.28071874 -0.6510286 0.7286742 0.4837919 0.43600997 0.12542753
000010 bf bf 9e 82 21 06 a0 39 11 1d 6c 41 72 cd 2a 8a
       -0.38822806 -0.38822806 -0.58532846 -0.75256515 0.1971004 0.035836436 -0.573383 0.34044614 0.10153657 0.17320944 0.64505583 0.38822806 0.6808923 -0.30460972 0.25085506 -0.70478326
000020 4a d0 13 6c 56 f4 00 48 af ab df a9 e9 a6 aa 06
       0.44198272 -0.2866915 0.11348204 0.64505583 0.5136556 -0.07167287 0.0 0.43003723 -0.4837919 -0.50768286 -0.1971004 -0.51962835 -0.137373 -0.5375465 -0.5136556 0.035836436
000030 61 79 c4 57 42 ca 12 18 cf 81 ec 79 19 d2 d2 e3
       0.5793557 0.72270143 -0.35836434 0.51962835 0.3942008 -0.32252792 0.10750931 0.14334574 -0.29266423 -0.7585379 -0.119454786 0.72270143 0.14931849 -0.274746 -0.274746 -0.17320944
000040 1d c6 6c d0 d6 0a fb 70 42 28 25 23 b6 23 15 28
       0.17320944 -0.3464189 0.64505583 -0.2866915 -0.25085506 0.059727393 -0.029863697 0.6689468 0.3942008 0.23890957 0.22099136 0.20904587 -0.44198272 0.20904587 0.12542753 0.23890957
000050 5e 9f 49 f2 7b 69 74 a5 b9 26 81 fe 39 3e 3f c8
       0.5614375 -0.5793557 0.43600997 -0.08361835 0.7346469 0.6271376 0.6928378 -0.54351926 -0.4240645 0.22696409 -0.7585379 -0.011945479 0.34044614 0.37030983 0.37628257 -0.3344734
000060 7e 9e 5e 8e f2 db 6b fd e1 c3 01 4a ba 8f 33 71
       0.75256515 -0.58532846 0.5614375 -0.6808923 -0.08361835 -0.22099136 0.6390831 -0.017918218 -0.18515491 -0.3643371 0.0059727393 0.44198272 -0.41809174 -0.67491955 0.30460972 0.67491955
000070 09 80 5d 9c 58 64 b7 90 13 2a e9 1d 07 2c 06 70
       0.053754654 -0.76451063 0.55546474 -0.59727395 0.525601 0.59727395 -0.43600997 -0.6689468 0.11348204 0.25085506 -0.137373 0.17320944 0.041809175 0.2628005 0.035836436 0.6689468
000080 43 0d b6 57 02 3c be 3c 42 ab 77 15 0e 98 fb f2
       0.40017354 0.077645615 -0.44198272 0.51962835 0.011945479 0.35836434 -0.3942008 0.35836434 0.3942008 -0.50768286 0.710756 0.12542753 0.08361835 -0.6211649 -0.029863697 -0.08361835
000090 1d 14 d9 b8 d1 59 2a 67 6f fc 59 39 33 e0 49 0b
       0.17320944 0.119454786 -0.23293683 -0.43003723 -0.28071874 0.5315738 0.25085506 0.6151922 0.66297406 -0.023890957 0.5315738 0.34044614 0.30460972 -0.19112766 0.43600997 0.06570013
0000a0 4e 65 81 9f 71 f2 a5 90 4f 24 c7 05 fb 77 1e 14
       0.46587366 0.6032467 -0.7585379 -0.5793557 0.67491955 -0.08361835 -0.54351926 -0.6689468 0.4718464 0.21501862 -0.34044614 0.029863697 -0.029863697 0.710756 0.17918217 0.119454786
0000b0 ca 2f fc ac ec bf a2 69 15 0a 6b a9 a0 74 ee ad
       -0.32252792 0.28071874 -0.023890957 -0.5017101 -0.119454786 -0.38822806 -0.5614375 0.6271376 0.12542753 0.059727393 0.6390831 -0.51962835 -0.573383 0.6928378 -0.10750931 -0.49573737
0000c0 a9 50 4d 4d ab 6e c1 b3 da bb bd ab 00 05 14 c1
       -0.51962835 0.47781914 0.45990092 0.45990092 -0.50768286 0.6570013 -0.37628257 -0.45990092 -0.22696409 -0.412119 -0.40017354 -0.50768286 0.0 0.029863697 0.119454786 -0.37628257
0000d0 c4 53 7b 78 97 68 3c 05 f2 ed 87 ca 86 d1 df da
       -0.35836434 0.49573737 0.7346469 0.7167287 -0.6271376 0.6211649 0.35836434 0.029863697 -0.08361835 -0.11348204 -0.72270143 -0.32252792 -0.7286742 -0.28071874 -0.1971004 -0.22696409
0000e0 b3 2f 17 87 87 2f d8 e9 b2 96 dc 7f 22 f1 2a 9f
       -0.45990092 0.28071874 0.137373 -0.72270143 -0.72270143 0.28071874 -0.23890957 -0.137373 -0.46587366 -0.63311034 -0.21501862 0.7585379 0.20307314 -0.089591086 0.25085506 -0.5793557
0000f0 fe 54 55 a1 96 ab 9f 61 74 cd 4d 77 38 02 23 29
       -0.011945479 0.5017101 0.50768286 -0.56741023 -0.63311034 -0.50768286 -0.5793557 0.5793557 0.6928378 -0.30460972 0.45990092 0.710756 0.3344734 0.011945479 0.20904587 0.24488232

 i1 [64, 16] scale=0.00649388 zero_point=0
000000 ef a7 32 b7 10 e9 bd 97 45 92 3c d3 35 2e 59 37
       -0.11039596 -0.5779553 0.324694 -0.47405323 0.10390208 -0.14935924 -0.43508995 -0.6818574 0.4480777 -0.7143268 0.3896328 -0.2922246 0.34417564 0.29871848 0.5779553 0.3571634
000010 65 5c 7f d0 99 9c 01 e9 1f 65 e9 ec 0f 2d 46 bc
       0.6558819 0.59743696 0.82472277 -0.31170624 -0.6688696 -0.649388 0.00649388 -0.14935924 0.20131028 0.6558819 -0.14935924 -0.1298776 0.0974082 0.2922246 0.4545716 -0.44158384
000020 d4 8f 51 1c a0 a4 9b 4f 95 54 b0 50 74 fa 0f e6
       -0.28573072 -0.73380846 0.52600425 0.18182863 -0.6234125 -0.59743696 -0.6558819 0.5130165 -0.69484514 0.5454859 -0.5195104 0.5195104 0.75329006 -0.03896328 0.0974082 -0.16884089
000030 55 81 ce 0f d1 25 56 c8 2f 3a 65 d4 86 4a 8e ff
       0.5519798 -0.82472277 -0.324694 0.0974082 -0.30521235 0.24027357 0.55847365 -0.36365727 0.30521235 0.37664503 0.6558819 -0.28573072 -0.7922534 0.48054713 -0.7403023 -0.00649388
000040 5a cc 67 96 cc 65 0d 20 ee ba 6b cb de 10 2f bf
       0.5844492 -0.33768177 0.6688696 -0.6883513 -0.33768177 0.6558819 0.08442044 0.20780416 -0.11688984 -0.4545716 0.69484514 -0.34417564 -0.22079192 0.10390208 0.30521235 -0.42210218
000050 67 6d be ef 72 fc 25 62 bf bb c5 e0 7b 4c 32 c5
       0.6688696 0.70783293 -0.42859608 -0.11039596 0.7403023 -0.02597552 0.24027357 0.6364002 -0.42210218 -0.4480777 -0.38313892 -0.20780416 0.79874724 0.49353486 0.324694 -0.38313892
000060 db 9f b5 e2 75 8a ba bb 69 28 b6 41 25 83 67 35
       -0.24027357 -0.62990636 -0.487041 -0.1948164 0.759784 -0.76627785 -0.4545716 -0.4480777 0.6818574 0.2597552 -0.48054713 0.42210218 0.24027357 -0.811735 0.6688696 0.34417564
000070 1b d7 b3 d7 58 54 8a 0b 7c f3 05 cf 2c 78 70 c6
       0.17533475 -0.2662491 -0.5000287 -0.2662491 0.57146144 0.5454859 -0.76627785 0.07143268 0.8052411 -0.08442044 0.0324694 -0.3182001 0.28573072 0.7792656 0.72731453 -0.37664503
000080 ed 7e 56 b6 4e 48 aa 57 c4 b0 b2 a0 ca 50 e1 c7
       -0.123383716 0.8182289 0.55847365 -0.48054713 0.50652266 0.46755937 -0.55847365 0.5649676 -0.3896328 -0.5195104 -0.50652266 -0.6234125 -0.3506695 0.5195104 -0.20131028 -0.37015116
000090 41 ea ac 5f 18 13 e5 85 78 3f 05 f3 fd 74 7a 42
       0.42210218 -0.14286536 -0.5454859 0.6169186 0.15585312 0.123383716 -0.17533475 -0.79874724 0.7792656 0.40911445 0.0324694 -0.08442044 -0.01948164 0.75329006 0.7922534 0.42859608
0000a0 61 91 19 c6 19 e9 d2 78 2c b1 a3 7f 62 ea 2a 35
       0.62990636 -0.72082067 0.162347 -0.37664503 0.162347 -0.14935924 -0.29871848 0.7792656 0.28573072 -0.5130165 -0.60393083 0.82472277 0.6364002 -0.14286536 0.27274296 0.34417564
0000b0 1c 55 a3 f7 dc ec 48 23 99 8d e1 4d 45 ad 92 c6
       0.18182863 0.5519798 -0.60393083 -0.05844492 -0.23377968 -0.1298776 0.46755937 0.2272858 -0.6688696 -0.7467962 -0.20131028 0.5000287 0.4480777 -0.53899205 -0.7143268 -0.37664503
0000c0 f4 a2 e5 e6 58 e4 d5 37 d0 47 0b 64 68 48 7e eb
       -0.07792656 -0.6104247 -0.17533475 -0.16884089 0.57146144 -0.18182863 -0.27923682 0.3571634 -0.31170624 0.46106547 0.07143268 0.649388 0.67536354 0.46755937 0.8182289 -0.13637148
0000d0 be 5e 74 d1 c4 a5 60 d0 30 62 bc 81 c4 01 68 18
       -0.42859608 0.6104247 0.75329006 -0.30521235 -0.3896328 -0.5909431 0.6234125 -0.31170624 0.31170624 0.6364002 -0.44158384 -0.82472277 -0.3896328 0.00649388 0.67536354 0.15585312
0000e0 f3 ac 9d b1 4d dd 8b d2 54 5d d1 1c ee 75 9e 99
       -0.08442044 -0.5454859 -0.6428941 -0.5130165 0.5000287 -0.2272858 -0.759784 -0.29871848 0.5454859 0.60393083 -0.30521235 0.18182863 -0.11688984 0.759784 -0.6364002 -0.6688696
0000f0 42 69 38 cc 66 24 d9 8f 70 98 c3 5e 08 f0 d8 2d
       0.42859608 0.6818574 0.36365727 -0.33768177 0.66237575 0.23377968 -0.25326133 -0.73380846 0.72731453 -0.67536354 -0.3961267 0.6104247 0.05195104 -0.10390208 -0.2597552 0.2922246

 i1 [64, 8] scale=0.0063349116 zero_point=0
000000 0e f8 8f de fd fd cf d1 6f 9f f2 b6 b6 59 b2 73
       0.08868876 -0.050679293 -0.715845 -0.21538699 -0.019004734 -0.019004734 -0.31041068 -0.29774085 0.7031752 -0.6144864 -0.08868876 -0.46878347 -0.46878347 0.56380713 -0.4941231 0.72851485
000010 1c 3c 0d b0 4d b8 96 c6 eb e5 f8 0d 3e d7 0c bd
       0.17737752 0.3800947 0.08235385 -0.5067929 0.4877882 -0.45611364 -0.6715006 -0.36742488 -0.13303314 -0.1710426 -0.050679293 0.08235385 0.3927645 -0.25973138 0.07601894 -0.42443907
000020 9c aa d5 1c 19 9a 4c 8e fa ac 68 74 16 06 b5 49
       -0.63349116 -0.54480237 -0.27240118 0.17737752 0.15837279 -0.64616096 0.48145327 -0.7221799 -0.03800947 -0.53213257 0.6588308 0.73484975 0.13936806 0.03800947 -0.47511837 0.46244854
000030 e7 d5 6f 4f cc d9 02 74 d6 08 73 7c a9 fa 3e 50
       -0.15837279 -0.27240118 0.7031752 0.500458 -0.3294154 -0.24706155 0.012669823 0.73484975 -0.26606628 0.050679293 0.72851485 0.785529 -0.5511373 -0.03800947 0.3927645 0.5067929
000040 87 f7 fb a6 94 dc b1 40 ec a7 a9 39 ff 40 4a 97
       -0.7665243 -0.057014205 -0.031674556 -0.57014203 -0.6841704 -0.22805682 -0.500458 0.40543434 -0.12669823 -0.56380713 -0.5511373 0.36108994 -0.0063349116 0.40543434 0.46878347 -0.6651657
000050 9b cc 57 66 68 d6 a8 4d 13 06 0e 03 c4 df 7a e4
       -0.63982606 -0.3294154 0.5511373 0.64616096 0.6588308 -0.26606628 -0.5574722 0.4877882 0.12036332 0.03800947 0.08868876 0.019004734 -0.3800947 -0.20905209 0.7728592 -0.17737752
000060 2f 0e d7 54 e0 bd 93 eb 82 d8 05 2d a2 f0 4e d0
       0.29774085 0.08868876 -0.25973138 0.53213257 -0.20271717 -0.42443907 -0.6905054 -0.13303314 -0.7981989 -0.25339645 0.031674556 0.28507102 -0.5954817 -0.101358585 0.4941231 -0.30407575
000070 f9 3e 3e 6b 3d 08 39 4e 35 13 7b 3b 39 2c 47 2c
       -0.04434438 0.3927645 0.3927645 0.6778355 0.3864296 0.050679293 0.36108994 0.4941231 0.3357503 0.12036332 0.7791941 0.37375978 0.36108994 0.2787361 0.44977874 0.2787361
000080 61 9f fd 59 88 5f 65 08 a9 66 ec b5 21 f3 e9 ba
       0.6144864 -0.6144864 -0.019004734 0.56380713 -0.7601894 0.6018166 0.63982606 0.050679293 -0.5511373 0.64616096 -0.12669823 -0.47511837 0.20905209 -0.08235385 -0.14570297 -0.4434438
000090 11 63 24 6c f4 50 3a e5 0c 06 39 69 2f ca 0f 48
       0.10769349 0.62715626 0.22805682 0.6841704 -0.07601894 0.5067929 0.36742488 -0.1710426 0.07601894 0.03800947 0.36108994 0.6651657 0.29774085 -0.3420852 0.09502368 0.45611364
0000a0 be 95 7d 13 3d a5 75 69 85 c8 b3 72 72 3c 4f 96
       -0.41810417 -0.6778355 0.7918639 0.12036332 0.3864296 -0.57647693 0.74118465 0.6651657 -0.7791941 -0.35475504 -0.4877882 0.7221799 0.7221799 0.3800947 0.500458 -0.6715006
0000b0 e7 b7 bd e7 76 ba ac c0 07 4d c1 ed b9 f0 91 2e
       -0.15837279 -0.46244854 -0.42443907 -0.15837279 0.74751955 -0.4434438 -0.53213257 -0.40543434 0.04434438 0.4877882 -0.39909944 -0.12036332 -0.44977874 -0.101358585 -0.7031752 0.29140595
0000c0 36 b7 5b 1c b7 d6 b3 45 7d 0a f5 43 dd 7a 8b 4e
       0.3420852 -0.46244854 0.57647693 0.17737752 -0.46244854 -0.26606628 -0.4877882 0.4371089 0.7918639 0.06334911 -0.06968403 0.42443907 -0.2217219 0.7728592 -0.74118465 0.4941231
0000d0 18 f2 f3 19 cd 4a da 3c 1b 05 27 67 43 a9 8e e7
       0.15203787 -0.08868876 -0.08235385 0.15837279 -0.32308048 0.46878347 -0.24072663 0.3800947 0.1710426 0.031674556 0.24706155 0.6524959 0.42443907 -0.5511373 -0.7221799 -0.15837279
0000e0 4a 95 a9 ad 6c 8c b2 2e 12 cb f3 eb 65 26 f4 3e
       0.46878347 -0.6778355 -0.5511373 -0.52579767 0.6841704 -0.73484975 -0.4941231 0.29140595 0.11402841 -0.3357503 -0.08235385 -0.13303314 0.63982606 0.24072663 -0.07601894 0.3927645
0000f0 86 ee 7e d9 ba ce 8d 15 3e a8 40 59 1d 27 78 75
       -0.7728592 -0.11402841 0.7981989 -0.24706155 -0.4434438 -0.31674558 -0.72851485 0.13303314 0.3927645 -0.5574722 0.40543434 0.56380713 0.18371244 0.24706155 0.7601894 0.74118465

 i1 [16, 64] scale=0.0056598596 zero_point=0
000000 13 9d d2 b0 30 0b 0b 3e 1a 84 b0 bd 81 34 25 73
       0.10753733 -0.5603261 -0.26035354 -0.45278877 0.27167326 0.062258456 0.062258456 0.3509113 0.14715636 -0.7018226 -0.45278877 -0.3792106 -0.71880215 0.29431272 0.20941481 0.65088385
000010 99 87 1a c8 44 34 9d 1a 3d 76 44 1d e2 22 ad 3d
       -0.58296555 -0.684843 0.14715636 -0.31695214 0.38487047 0.29431272 -0.5603261 0.14715636 0.34525144 0.6678634 0.38487047 0.16413593 -0.16979578 0.19243523 -0.46976835 0.34525144
000020 b2 a3 1c d5 27 8c c6 84 df 33 be b2 a7 b9 c5 6e
       -0.44146904 -0.52636695 0.15847607 -0.24337396 0.22073452 -0.65654373 -0.32827187 -0.7018226 -0.18677537 0.28865284 -0.37355074 -0.44146904 -0.5037275 -0.40185004 -0.3339317 0.6225846
000030 48 dc e9 f8 ef fc aa 1f 5e 41 48 1e e0 b9 d6 6e
       0.4075099 -0.20375495 -0.13017677 -0.045278877 -0.09621762 -0.022639439 -0.48674792 0.17545564 0.5320268 0.36789086 0.4075099 0.16979578 -0.18111551 -0.40185004 -0.23771411 0.6225846
000040 7a 9c a3 98 4b fa 90 a4 58 33 85 3b 11 44 83 4b
       0.6905029 -0.565986 -0.52636695 -0.58862543 0.42448947 -0.033959158 -0.6339043 -0.5207071 0.49806765 0.28865284 -0.69616276 0.3339317 0.09621762 0.38487047 -0.70748246 0.42448947
000050 1e 0e 5d 11 36 15 e1 bf 15 04 8e 88 c6 18 53 c3
       0.16979578 0.079238035 0.52636695 0.09621762 0.3056324 0.118857056 -0.17545564 -0.36789086 0.118857056 0.022639439 -0.645224 -0.6791831 -0.32827187 0.13583663 0.46976835 -0.34525144
000060 8d 28 86 25 ef 55 7b f6 85 f8 ed 3b cf 5d a6 c7
       -0.65088385 0.22639439 -0.6905029 0.20941481 -0.09621762 0.48108807 0.69616276 -0.056598596 -0.69616276 -0.045278877 -0.10753733 0.3339317 -0.2773331 0.52636695 -0.5093874 -0.322612
000070 66 b7 be 14 f0 62 89 1f 32 1e 86 2a 93 d5 ca 37
       0.5773057 -0.41316974 -0.37355074 0.11319719 -0.090557754 0.5546662 -0.6735233 0.17545564 0.282993 0.16979578 -0.6905029 0.23771411 -0.6169247 -0.24337396 -0.3056324 0.3112923
000080 03 0b f8 0f ca 50 6c 16 2b f0 77 ca bb 8e 95 11
       0.016979579 0.062258456 -0.045278877 0.08489789 -0.3056324 0.45278877 0.6112648 0.12451691 0.24337396 -0.090557754 0.6735233 -0.3056324 -0.39053032 -0.645224 -0.605605 0.09621762
000090 ef 5b be 2f 62 50 b8 3d ff fa 30 21 b2 86 3f 50
       -0.09621762 0.51504725 -0.37355074 0.2660134 0.5546662 0.45278877 -0.4075099 0.34525144 -0.0056598596 -0.033959158 0.27167326 0.18677537 -0.44146904 -0.6905029 0.35657117 0.45278877
0000a0 57 98 79 15 ce 3e bf 49 58 b0 b5 d7 be 01 55 ee
       0.4924078 -0.58862543 0.684843 0.118857056 -0.282993 0.3509113 -0.36789086 0.41316974 0.49806765 -0.45278877 -0.42448947 -0.23205425 -0.37355074 0.0056598596 0.48108807 -0.10187747
0000b0 60 14 9d 5b 57 48 05 72 6a 23 29 eb f3 36 2a c1
       0.5433465 0.11319719 -0.5603261 0.51504725 0.4924078 0.4075099 0.028299298 0.645224 0.5999451 0.19809508 0.23205425 -0.118857056 -0.07357818 0.3056324 0.23771411 -0.35657117
0000c0 da 5e 4a 63 c4 6b 04 e8 e8 c1 b5 c4 2d 60 1f a0
       -0.21507466 0.5320268 0.41882962 0.5603261 -0.33959156 0.605605 0.022639439 -0.13583663 -0.13583663 -0.35657117 -0.42448947 -0.33959156 0.2546937 0.5433465 0.17545564 -0.5433465
0000d0 2b 33 a5 b7 82 59 21 ba 13 da 79 da 5a b1 82 5b
       0.24337396 0.28865284 -0.51504725 -0.41316974 -0.71314234 0.5037275 0.18677537 -0.39619017 0.10753733 -0.21507466 0.684843 -0.21507466 0.5093874 -0.44712892 -0.71314234 0.51504725
0000e0 52 7f 0c 70 75 65 e0 44 b3 ca d0 09 38 24 83 8e
       0.4641085 0.71880215 0.067918316 0.6339043 0.66220355 0.5716458 -0.18111551 0.38487047 -0.4358092 -0.3056324 -0.27167326 0.050938737 0.31695214 0.20375495 -0.70748246 -0.645224
0000f0 0c 4c ef 96 e4 04 30 46 23 6a 28 13 1d 37 14 75
       0.067918316 0.43014932 -0.09621762 -0.5999451 -0.15847607 0.022639439 0.27167326 0.39619017 0.19809508 0.5999451 0.22639439 0.10753733 0.16413593 0.3112923 0.11319719 0.66220355

 i1 [64, 16] scale=0.00495965 zero_point=0
000000 f3 56 07 a5 ab 6d 09 d2 0d 08 6b 6e 1f c1 f2 91
       -0.06447545 0.42652988 0.03471755 -0.45132813 -0.42157024 0.54060185 0.04463685 -0.2281439 0.06447545 0.0396772 0.53068256 0.5455615 0.15374915 -0.31245795 -0.0694351 -0.55052114
000010 1a 39 fe 14 56 3f eb 9f 14 c2 b3 b2 c2 8d c2 ee
       0.1289509 0.28270003 -0.0099193 0.099193 0.42652988 0.31245795 -0.10415265 -0.48108605 0.099193 -0.3074983 -0.38189304 -0.38685268 -0.3074983 -0.5703597 -0.3074983 -0.0892737
000020 7e f0 7d 92 d2 c3 57 3e 2c 07 1b 6a 9b 3b 79 59
       0.6249159 -0.0793544 0.61995625 -0.5455615 -0.2281439 -0.30253863 0.43148953 0.3074983 0.2182246 0.03471755 0.13391055 0.52572286 -0.50092465 0.29261935 0.6001176 0.44140884
000030 c9 22 96 6c 3e 37 d3 0e 5c f6 8f a9 aa c9 a4 4b
       -0.27278075 0.1686281 -0.52572286 0.5356422 0.3074983 0.27278075 -0.22318424 0.0694351 0.4562878 -0.0495965 -0.5604404 -0.43148953 -0.42652988 -0.27278075 -0.4562878 0.37197375
000040 af 5d 1a b6 f3 91 32 4f ca 72 a0 42 01 51 af 19
       -0.40173164 0.46124744 0.1289509 -0.36701408 -0.06447545 -0.55052114 0.24798249 0.39181235 -0.2678211 0.56540006 -0.47612637 0.32733688 0.00495965 0.40173164 -0.40173164 0.12399124
000050 89 c4 cc 9b f3 52 e9 a6 f2 71 6f 5a 38 02 b8 75
       -0.59019834 -0.297579 -0.2579018 -0.50092465 -0.06447545 0.40669128 -0.11407195 -0.4463685 -0.0694351 0.5604404 0.55052114 0.4463685 0.2777404 0.0099193 -0.3570948 0.58027905
000060 88 5f 8d 12 c5 55 4f d1 ba f2 24 dc 63 5f 93 c7
       -0.595158 0.47116673 -0.5703597 0.0892737 -0.29261935 0.42157024 0.39181235 -0.23310354 -0.34717548 -0.0694351 0.1785474 -0.1785474 0.49100533 0.47116673 -0.54060185 -0.28270003
000070 f3 e7 59 ac c3 ed bc 02 e3 ad b2 8e 2c 2d 47 b4
       -0.06447545 -0.12399124 0.44140884 -0.4166106 -0.30253863 -0.09423335 -0.3372562 0.0099193 -0.14382985 -0.41165093 -0.38685268 -0.56540006 0.2182246 0.22318424 0.35213515 -0.3769334
000080 34 8d ae 44 c8 5f 14 e8 8e 7b c3 60 53 9a 51 ea
       0.2579018 -0.5703597 -0.40669128 0.3372562 -0.2777404 0.47116673 0.099193 -0.11903159 -0.56540006 0.6100369 -0.30253863 0.47612637 0.41165093 -0.5058843 0.40173164 -0.1091123
000090 7f 2f b6 62 61 f7 c0 18 0f 20 79 13 5c e8 ca 04
       0.62987554 0.23310354 -0.36701408 0.4860457 0.48108605 -0.04463685 -0.3174176 0.11903159 0.07439475 0.1587088 0.6001176 0.09423335 0.4562878 -0.11903159 -0.2678211 0.0198386
0000a0 29 5f 70 4d 88 a2 43 20 57 33 04 74 8e 7c 89 d4
       0.20334564 0.47116673 0.5554808 0.38189304 -0.595158 -0.4662071 0.33229655 0.1587088 0.43148953 0.25294214 0.0198386 0.5753194 -0.56540006 0.6149966 -0.59019834 -0.2182246
0000b0 56 8f 93 86 81 6c 11 fc 32 0e b0 3e e5 13 bf 76
       0.42652988 -0.5604404 -0.54060185 -0.60507727 -0.62987554 0.5356422 0.08431405 -0.0198386 0.24798249 0.0694351 -0.396772 0.3074983 -0.13391055 0.09423335 -0.32237723 0.5852387
0000c0 9c 52 ff 48 06 61 76 6d d7 44 b1 0c 32 62 15 a1
       -0.49596497 0.40669128 -0.00495965 0.3570948 0.029757898 0.48108605 0.5852387 0.54060185 -0.20334564 0.3372562 -0.39181235 0.059515797 0.24798249 0.4860457 0.10415265 -0.47116673
0000d0 c3 97 03 dd ed 20 3c 3a 09 16 e5 7d 8c f9 7b 22
       -0.30253863 -0.5207632 0.014878949 -0.17358774 -0.09423335 0.1587088 0.297579 0.2876597 0.04463685 0.1091123 -0.13391055 0.61995625 -0.5753194 -0.03471755 0.6100369 0.1686281
0000e0 5e 3a dd f0 c6 f0 3a d4 94 85 1c 60 74 91 a3 e2
       0.4662071 0.2876597 -0.17358774 -0.0793544 -0.2876597 -0.0793544 0.2876597 -0.2182246 -0.5356422 -0.6100369 0.1388702 0.47612637 0.5753194 -0.55052114 -0.46124744 -0.1487895
0000f0 8a e5 3e d4 95 28 8b 1a 7b be 07 c0 e3 6b b9 85
       -0.5852387 -0.13391055 0.3074983 -0.2182246 -0.53068256 0.198386 -0.58027905 0.1289509 0.6100369 -0.32733688 0.03471755 -0.3174176 -0.14382985 0.53068256 -0.35213515 -0.6100369

 i1 [64, 8] scale=0.005992627 zero_point=0
000000 12 10 ce 5e 37 cd 7e a5 cb ff 91 f0 62 db 95 74
       0.107867286 0.09588203 -0.29963133 0.5633069 0.32959446 -0.30562398 0.755071 -0.54532903 -0.31760922 -0.005992627 -0.6651816 -0.09588203 0.5872774 -0.22172719 -0.6412111 0.6951447
000010 0c 8c 1e 78 11 02 b3 02 0b 31 e7 4e 8b 58 6a de
       0.07191152 -0.6951447 0.1797788 0.7191152 0.10187466 0.011985254 -0.46143225 0.011985254 0.06591889 0.2936387 -0.14981566 0.4674249 -0.7011373 0.52735114 0.63521844 -0.20374931
000020 20 93 8b 8e 62 03 24 c9 ca f8 44 1d 0c 1b d8 5d
       0.19176406 -0.65319633 -0.7011373 -0.6831595 0.5872774 0.01797788 0.21573457 -0.32959446 -0.32360184 -0.047941014 0.40749863 0.17378618 0.07191152 0.16180092 -0.23970507 0.5573143
000030 cc e2 8e 02 c6 5c 06 45 e6 94 8f a2 3e f5 e9 f5
       -0.3116166 -0.1797788 -0.6831595 0.011985254 -0.34757236 0.5513217 0.03595576 0.41349125 -0.1558083 -0.6472037 -0.6771668 -0.5633069 0.37154287 -0.06591889 -0.13783042 -0.06591889
000040 88 87 b2 84 1e b6 b6 fc 9f 8e 79 f5 4b 24 81 3e
       -0.7191152 -0.72510785 -0.4674249 -0.74308574 0.1797788 -0.44345438 -0.44345438 -0.023970507 -0.5812848 -0.6831595 0.72510785 -0.06591889 0.449447 0.21573457 -0.7610636 0.37154287
000050 5d f4 10 6e dd 8c 8c ae c6 2c 26 b2 fc f3 99 e8
       0.5573143 -0.07191152 0.09588203 0.6591889 -0.20974194 -0.6951447 -0.6951447 -0.49139538 -0.34757236 0.26367557 0.22771981 -0.4674249 -0.023970507 -0.07790415 -0.61724055 -0.14382304
000060 8c 65 5d 6c a8 1d 6f 1e 32 0a ee 87 f6 e1 dd 5e
       -0.6951447 0.6052553 0.5573143 0.6472037 -0.52735114 0.17378618 0.6651816 0.1797788 0.29963133 0.059926268 -0.107867286 -0.72510785 -0.059926268 -0.18577144 -0.20974194 0.5633069
000070 7f 7a 90 8c 3f e8 47 95 9b c8 2c 49 c9 e4 2d ea
       0.7610636 0.73110044 -0.67117417 -0.6951447 0.3775355 -0.14382304 0.4254765 -0.6412111 -0.6052553 -0.33558708 0.26367557 0.43746176 -0.32959446 -0.16779354 0.2696682 -0.13183779
000080 58 fc 29 1a b7 a1 f9 b8 84 41 a0 f1 77 83 56 73
       0.52735114 -0.023970507 0.24569769 0.1558083 -0.43746176 -0.5692995 -0.041948386 -0.43146914 -0.74308574 0.38952073 -0.57529217 -0.0898894 0.7131226 -0.74907833 0.5153659 0.68915206
000090 86 ea f4 f5 2a a6 6b 00 64 39 08 8f f0 22 1a 4c
       -0.73110044 -0.13183779 -0.07191152 -0.06591889 0.25169033 -0.5393364 0.6412111 0.0 0.59926265 0.34157974 0.047941014 -0.6771668 -0.09588203 0.20374931 0.1558083 0.45543963
0000a0 f2 5a d0 aa 39 ae 8a bc 03 99 f7 cc 80 df 2b 85
       -0.08389677 0.5393364 -0.28764609 -0.5153659 0.34157974 -0.49139538 -0.70712996 -0.40749863 0.01797788 -0.61724055 -0.053933643 -0.3116166 -0.7670562 -0.19775668 0.25768295 -0.7370931
0000b0 be 1a 97 28 63 04 72 75 75 b4 9c d3 17 cc 1e a1
       -0.39551336 0.1558083 -0.6292258 0.23970507 0.59327006 0.023970507 0.6831595 0.7011373 0.7011373 -0.45543963 -0.59926265 -0.2696682 0.13783042 -0.3116166 0.1797788 -0.5692995
0000c0 d2 47 18 45 ad b4 0a 32 31 36 64 48 3f 7b 4b c0
       -0.27566084 0.4254765 0.14382304 0.41349125 -0.49738804 -0.45543963 0.059926268 0.29963133 0.2936387 0.32360184 0.59926265 0.43146914 0.3775355 0.7370931 0.449447 -0.3835281
0000d0 d6 78 46 aa 90 89 f9 36 3d b4 b3 50 51 d9 55 6f
       -0.25169033 0.7191152 0.41948387 -0.5153659 -0.67117417 -0.7131226 -0.041948386 0.32360184 0.36555022 -0.45543963 -0.46143225 0.47941014 0.48540276 -0.23371245 0.50937325 0.6651816
0000e0 a9 e7 25 af a0 ca 9d 45 83 c3 0b 2a 0c f9 3f e4
       -0.52135855 -0.14981566 0.22172719 -0.48540276 -0.57529217 -0.32360184 -0.59327006 0.41349125 -0.74907833 -0.36555022 0.06591889 0.25169033 0.07191152 -0.041948386 0.3775355 -0.16779354
0000f0 08 f4 bd 23 45 85 cf 41 93 d3 21 5f 53 a2 5b a9
       0.047941014 -0.07191152 -0.401506 0.20974194 0.41349125 -0.7370931 -0.2936387 0.38952073 -0.65319633 -0.2696682 0.19775668 0.5692995 0.49738804 -0.5633069 0.54532903 -0.52135855

 i1 [16, 64] scale=0.005224781 zero_point=0
000000 2a cf 8e 97 f1 a8 fc b1 61 dc b4 8f 29 a2 68 4a
       0.2194408 -0.2560143 -0.59562504 -0.54860204 -0.07837172 -0.45978075 -0.020899124 -0.4127577 0.50680375 -0.18809211 -0.39708337 -0.5904003 0.21421602 -0.49112943 0.5433772 0.3866338
000010 e6 2f 8a 69 2c a1 1d e2 9e 65 71 b7 83 ef 63 f5
       -0.1358443 0.24556471 -0.61652416 0.54860204 0.22989038 -0.4963542 0.15151866 -0.15674344 -0.5120286 0.52770287 0.5904003 -0.38140902 -0.6530976 -0.08882128 0.51725334 -0.057472594
000020 36 dc a0 94 5a 45 8a 85 5e 28 86 21 d2 bf 7a 2f
       0.28213817 -0.18809211 -0.501579 -0.56427634 0.4702303 0.3605099 -0.61652416 -0.6426481 0.49112943 0.20899124 -0.6374233 0.17241777 -0.24033993 -0.3396108 0.6374233 0.24556471
000030 76 1c 2a 15 b2 e8 af 63 37 be d8 0a ef 54 ee e6
       0.61652416 0.14629388 0.2194408 0.1097204 -0.40753293 -0.12539475 -0.42320728 0.51725334 0.28736296 -0.34483555 -0.20899124 0.05224781 -0.08882128 0.4388816 -0.094046056 -0.1358443
000040 d9 b3 db 41 55 ba d8 14 7c 10 61 06 40 45 69 37
       -0.20376647 -0.40230814 -0.1933169 0.3396108 0.4441064 -0.36573467 -0.20899124 0.10449562 0.64787287 0.0835965 0.50680375 0.031348687 0.334386 0.3605099 0.54860204 0.28736296
000050 60 f7 6a 7a 23 70 30 57 3e e5 12 24 bc 5e 82 89
       0.501579 -0.047023028 0.5538268 0.6374233 0.18286733 0.5851755 0.2507895 0.45455596 0.32393643 -0.14106908 0.094046056 0.18809211 -0.3552851 0.49112943 -0.6583224 -0.6217489
000060 d8 37 c9 33 b9 38 a5 ba ed dd 93 58 81 15 ec 15
       -0.20899124 0.28736296 -0.28736296 0.26646385 -0.37095946 0.29258776 -0.47545508 -0.36573467 -0.09927084 -0.18286733 -0.56950116 0.45978075 -0.6635472 0.1097204 -0.10449562 0.1097204
000070 70 2f 30 fa af f7 f5 cb 41 74 ea c0 91 be 53 4c
       0.5851755 0.24556471 0.2507895 -0.031348687 -0.42320728 -0.047023028 -0.057472594 -0.2769134 0.3396108 0.60607463 -0.11494519 -0.334386 -0.5799507 -0.34483555 0.43365684 0.39708337
000080 c2 74 1b 5b 8c 74 d8 c3 4a 12 aa 57 d6 61 b1 b8
       -0.32393643 0.60607463 0.14106908 0.47545508 -0.60607463 0.60607463 -0.20899124 -0.31871164 0.3866338 0.094046056 -0.44933116 0.45455596 -0.2194408 0.50680375 -0.4127577 -0.37618423
000090 81 5d 81 37 1e 5b 3d 5a bc a6 b2 27 e3 01 4c f0
       -0.6635472 0.48590463 -0.6635472 0.28736296 0.15674344 0.47545508 0.31871164 0.4702303 -0.3552851 -0.4702303 -0.40753293 0.20376647 -0.15151866 0.005224781 0.39708337 -0.0835965
0000a0 ad 7b df 50 f9 d7 b7 cc a8 5c 3d 9a b7 60 3e 63
       -0.43365684 0.6426481 -0.17241777 0.4179825 -0.03657347 -0.21421602 -0.38140902 -0.2716886 -0.45978075 0.48067987 0.31871164 -0.5329277 -0.38140902 0.501579 0.32393643 0.51725334
0000b0 3f 6a 08 0b 82 dc 3e fa 24 33 d3 01 bf ef eb 52
       0.3291612 0.5538268 0.04179825 0.057472594 -0.6583224 -0.18809211 0.32393643 -0.031348687 0.18809211 0.26646385 -0.23511516 0.005224781 -0.3396108 -0.08882128 -0.1097204 0.42843205
0000c0 3f 91 61 da e2 26 10 df e4 9b 77 91 22 c5 4e 9c
       0.3291612 -0.5799507 0.50680375 -0.19854169 -0.15674344 0.19854169 0.0835965 -0.17241777 -0.14629388 -0.52770287 0.6217489 -0.5799507 0.17764255 -0.30826208 0.40753293 -0.5224781
0000d0 0b 32 ff 27 85 85 0c 99 50 8f ad 5d 06 18 52 b4
       0.057472594 0.26123905 -0.005224781 0.20376647 -0.6426481 -0.6426481 0.06269737 -0.53815246 0.4179825 -0.5904003 -0.43365684 0.48590463 0.031348687 0.12539475 0.42843205 -0.39708337
0000e0 64 09 c4 a4 84 d4 81 07 0a 97 55 f8 96 52 b2 9a
       0.5224781 0.047023028 -0.31348687 -0.48067987 -0.64787287 -0.22989038 -0.6635472 0.03657347 0.05224781 -0.54860204 0.4441064 -0.04179825 -0.5538268 0.42843205 -0.40753293 -0.5329277
0000f0 f4 06 2c 9a 3b 8b aa 67 18 3a ee bc ca 8f 46 f6
       -0.06269737 0.031348687 0.22989038 -0.5329277 0.30826208 -0.6112994 -0.44933116 0.53815246 0.12539475 0.30303732 -0.094046056 -0.3552851 -0.28213817 -0.5904003 0.36573467 -0.05224781

 i1 [32, 16] scale=0.0051283306 zero_point=0
000000 12 70 8c 9d 8f 4c 36 98 1e 2e b5 50 63 33 9c 4b
       0.09230995 0.574373 -0.59488636 -0.50770473 -0.57950133 0.38975313 0.27692986 -0.53334635 0.15384991 0.2359032 -0.38462478 0.41026646 0.50770473 0.26154485 -0.51283306 0.38462478
000010 c3 d4 a0 e6 96 96 75 fd 8a c4 0c a7 ea 9d f1 23
       -0.31282815 -0.22564654 -0.49231973 -0.13333659 -0.54360306 -0.54360306 0.6000147 -0.015384992 -0.605143 -0.30769983 0.061539967 -0.4564214 -0.11282327 -0.50770473 -0.07692496 0.17949156
000020 9e 38 ff 1a 67 36 5f 5f 17 88 1a 43 25 ea 76 b5
       -0.5025764 0.2871865 -0.0051283306 0.13333659 0.52821803 0.27692986 0.4871914 0.4871914 0.1179516 -0.61539966 0.13333659 0.34359816 0.18974823 -0.11282327 0.605143 -0.38462478
000030 cd ce 43 f8 71 2b db f0 cd 76 bd 94 57 db 77 cd
       -0.26154485 -0.25641653 0.34359816 -0.041026644 0.57950133 0.22051822 -0.18974823 -0.08205329 -0.26154485 0.605143 -0.34359816 -0.5538597 0.44616476 -0.18974823 0.61027133 -0.26154485
000040 b2 8f d1 c0 eb 00 61 7f 66 b0 43 6e e0 9f 11 0e
       -0.40000978 -0.57950133 -0.24103154 -0.32821316 -0.10769494 0.0 0.49744806 0.651298 0.5230897 -0.41026646 0.34359816 0.56411636 -0.16410658 -0.49744806 0.08718162 0.071796626
000050 65 f7 4e 00 74 c3 eb b1 eb 0c 24 5d 15 56 16 47
       0.5179614 -0.046154976 0.40000978 0.0 0.59488636 -0.31282815 -0.10769494 -0.4051381 -0.10769494 0.061539967 0.1846199 0.47693473 0.10769494 0.44103643 0.11282327 0.36411148
000060 87 cf 34 be 2a dd 77 55 a4 09 15 79 8c aa ce 32
       -0.620528 -0.2512882 0.26667318 -0.3384698 0.21538988 -0.17949156 0.61027133 0.4359081 -0.4718064 0.046154976 0.10769494 0.620528 -0.59488636 -0.44103643 -0.25641653 0.25641653
000070 90 9b 16 40 94 7f 19 27 bc bf 45 4b a5 f0 d0 9e
       -0.574373 -0.5179614 0.11282327 0.32821316 -0.5538597 0.651298 0.12820826 0.20000489 -0.34872648 -0.33334148 0.3538548 0.38462478 -0.46667808 -0.08205329 -0.24615987 -0.5025764
000080 5b b9 46 6e 72 8f 49 3b 7a c1 92 b0 d5 25 1b 0b
       0.46667808 -0.36411148 0.35898313 0.56411636 0.58462965 -0.57950133 0.37436813 0.3025715 0.6256563 -0.32308483 -0.56411636 -0.41026646 -0.22051822 0.18974823 0.13846493 0.056411635
000090 f3 d0 8a 47 8b be a4 f9 6a 09 84 9a 5b 5b ea bb
       -0.066668294 -0.24615987 -0.605143 0.36411148 -0.6000147 -0.3384698 -0.4718064 -0.035898313 0.54360306 0.046154976 -0.635913 -0.5230897 0.46667808 0.46667808 -0.11282327 -0.3538548
0000a0 6f d8 af cd 67 9b 79 7c 8f cc d7 5f 3a c3 d0 b7
       0.5692447 -0.20513323 -0.41539478 -0.26154485 0.52821803 -0.5179614 0.620528 0.635913 -0.57950133 -0.26667318 -0.21026155 0.4871914 0.29744318 -0.31282815 -0.24615987 -0.37436813
0000b0 ba 28 83 81 4a 05 51 af a0 52 34 e3 4f ec 82 dc
       -0.35898313 0.20513323 -0.64104134 -0.651298 0.37949646 0.025641654 0.41539478 -0.41539478 -0.49231973 0.4205231 0.26667318 -0.14872159 0.4051381 -0.102566615 -0.64616966 -0.1846199
0000c0 97 d8 69 b2 0d 68 35 87 58 c0 cf 58 0d f6 6b 6d
       -0.5384747 -0.20513323 0.5384747 -0.40000978 0.066668294 0.53334635 0.27180153 -0.620528 0.45129308 -0.32821316 -0.2512882 0.45129308 0.066668294 -0.051283307 0.5487314 0.55898803
0000d0 2a c0 72 e4 90 8c 7b 45 ba f1 13 6f 8c d2 dd c5
       0.21538988 -0.32821316 0.58462965 -0.14359325 -0.574373 -0.59488636 0.63078463 0.3538548 -0.35898313 -0.07692496 0.09743828 0.5692447 -0.59488636 -0.2359032 -0.17949156 -0.3025715
0000e0 8e c8 ec f9 fb de e5 aa cb c0 ff 77 2d 99 b1 69
       -0.58462965 -0.2871865 -0.102566615 -0.035898313 -0.025641654 -0.17436324 -0.13846493 -0.44103643 -0.27180153 -0.32821316 -0.0051283306 0.61027133 0.23077488 -0.52821803 -0.4051381 0.5384747
0000f0 7f e3 38 61 35 b6 45 dd 73 45 84 89 1b 96 7e 6a
       0.651298 -0.14872159 0.2871865 0.49744806 0.27180153 -0.37949646 0.3538548 -0.17949156 0.58975804 0.3538548 -0.635913 -0.61027133 0.13846493 -0.54360306 0.64616966 0.54360306
