tensorflow/lite/micro/integration_tests/seanet/conv/conv15.tflite (tflite, 4008 bytes, 1 tensors)

 i1 [32, 1, 1, 64]
0	0x09	9
1	0x11	17
2	0xd0	-48
3	0x37	55
4	0x0e	14
5	0x99	-103
6	0x9b	-101
7	0x05	5
8	0x8d	-115
9	0x9c	-100
10	0x10	16
11	0x12	18
12	0x7e	126
13	0xaf	-81
14	0xa2	-94
15	0x3f	63
16	0x77	119
17	0x8e	-114
18	0x54	84
19	0xa4	-92
20	0xbd	-67
21	0x17	23
22	0x87	-121
23	0x99	-103
24	0x1a	26
25	0x1b	27
26	0x7c	124
27	0x0d	13
28	0x4d	77
29	0x70	112
30	0x51	81
31	0x03	3
32	0x21	33
33	0x0e	14
34	0x21	33
35	0x70	112
36	0xa1	-95
37	0x5f	95
38	0x30	48
39	0x1c	28
40	0x35	53
41	0x05	5
42	0x13	19
43	0x13	19
44	0xd6	-42
45	0x07	7
46	0x6a	106
47	0x5a	90
48	0x0a	10
49	0x7a	122
50	0x99	-103
51	0x81	-127
52	0x9f	-97
53	0x79	121
54	0x06	6
55	0x16	22
56	0x02	2
57	0x71	113
58	0x06	6
59	0xab	-85
60	0x34	52
61	0x42	66
62	0xdb	-37
63	0x38	56
64	0x5a	90
65	0x26	38
66	0x7d	125
67	0x83	-125
68	0xd2	-46
69	0x04	4
70	0x01	1
71	0x16	22
72	0xec	-20
73	0xb5	-75
74	0x11	17
75	0xa5	-91
76	0x16	22
77	0x11	17
78	0x0c	12
79	0x89	-119
80	0x1e	30
81	0x7e	126
82	0x76	118
83	0x16	22
84	0x6e	110
85	0x21	33
86	0xb5	-75
87	0x2e	46
88	0x3b	59
89	0x5d	93
90	0xa7	-89
91	0xc6	-58
92	0x3d	61
93	0x1a	26
94	0x31	49
95	0x79	121
96	0x41	65
97	0xe7	-25
98	0x78	120
99	0xc0	-64
100	0x18	24
101	0x35	53
102	0x24	36
103	0x87	-121
104	0x0b	11
105	0xa7	-89
106	0x81	-127
107	0x8b	-117
108	0xbd	-67
109	0x65	101
110	0x05	5
111	0x04	4
112	0x3f	63
113	0xb8	-72
114	0x04	4
115	0x9c	-100
116	0x65	101
117	0xb9	-71
118	0x78	120
119	0x80	-128
120	0x10	16
121	0x0c	12
122	0x03	3
123	0xe5	-27
124	0x27	39
125	0x13	19
126	0xbe	-66
127	0xed	-19
128	0xa0	-96
129	0x2f	47
130	0x90	-112
131	0x1e	30
132	0x0f	15
133	0x74	116
134	0x0e	14
135	0x13	19
136	0x61	97
137	0x99	-103
138	0x09	9
139	0xdd	-35
140	0xa7	-89
141	0x78	120
142	0x60	96
143	0x88	-120
144	0xa8	-88
145	0xb9	-71
146	0x80	-128
147	0x67	103
148	0x00	0
149	0x44	68
150	0x04	4
151	0x90	-112
152	0xba	-70
153	0xb6	-74
154	0x08	8
155	0x01	1
156	0x55	85
157	0x98	-104
158	0xb6	-74
159	0x14	20
160	0x34	52
161	0x0d	13
162	0xc6	-58
163	0x91	-111
164	0x05	5
165	0xa3	-93
166	0x61	97
167	0x88	-120
168	0x0b	11
169	0x8d	-115
170	0x10	16
171	0x25	37
172	0x08	8
173	0x3a	58
174	0xc0	-64
175	0x78	120
176	0x6e	110
177	0x7e	126
178	0xa2	-94
179	0xbd	-67
180	0x79	121
181	0xde	-34
182	0x90	-112
183	0x0f	15
184	0x17	23
185	0xbe	-66
186	0xcc	-52
187	0x87	-121
188	0x8c	-116
189	0x87	-121
190	0xdb	-37
191	0x2d	45
192	0xa4	-92
193	0x9e	-98
194	0xf3	-13
195	0x11	17
196	0x0b	11
197	0x03	3
198	0xc7	-57
199	0x21	33
200	0x84	-124
201	0xd2	-46
202	0xe0	-32
203	0x84	-124
204	0x1a	26
205	0xc1	-63
206	0xc2	-62
207	0xb5	-75
208	0x95	-107
209	0xa5	-91
210	0x83	-125
211	0xa2	-94
212	0x1d	29
213	0x00	0
214	0x00	0
215	0x20	32
216	0xd8	-40
217	0xe8	-24
218	0x87	-121
219	0xea	-22
220	0x7e	126
221	0xb8	-72
222	0x16	22
223	0x1c	28
224	0x64	100
225	0xb5	-75
226	0xb5	-75
227	0xb1	-79
228	0x00	0
229	0x06	6
230	0x1c	28
231	0xc5	-59
232	0xae	-82
233	0x89	-119
234	0x10	16
235	0x09	9
236	0x03	3
237	0xc9	-55
238	0x95	-107
239	0x9e	-98
240	0xf3	-13
241	0x0d	13
242	0xcb	-53
243	0x14	20
244	0x10	16
245	0x6f	111
246	0xb0	-80
247	0x1a	26
248	0xd8	-40
249	0x86	-122
250	0x07	7
251	0x91	-111
252	0x9b	-101
253	0xbc	-68
254	0x17	23
255	0x9a	-102
