tensorflow/lite/micro/integration_tests/seanet/conv/conv5.tflite (tflite, 11784 bytes, 1 tensors)

streamable_model_10/unet_0/encoder_2/conv2d_3x3/conv/conv2d_195/Conv2D i1 [32, 3, 3, 32]
0	0xad	-83
1	0xf2	-14
2	0x01	1
3	0xef	-17
4	0x00	0
5	0xaa	-86
6	0xc9	-55
7	0x03	3
8	0x03	3
9	0x00	0
10	0x03	3
11	0x02	2
12	0xd0	-48
13	0xb0	-80
14	0x9b	-101
15	0x02	2
16	0x05	5
17	0xcf	-49
18	0xba	-70
19	0x02	2
20	0x03	3
21	0x00	0
22	0x00	0
23	0x00	0
24	0x02	2
25	0x01	1
26	0x9f	-97
27	0x01	1
28	0xa0	-96
29	0x00	0
30	0xf9	-7
31	0x00	0
32	0xea	-22
33	0x91	-111
34	0x00	0
35	0xac	-84
36	0xce	-50
37	0x89	-119
38	0xf9	-7
39	0x88	-120
40	0x92	-110
41	0x02	2
42	0xe8	-24
43	0x00	0
44	0x8a	-118
45	0xf6	-10
46	0xdd	-35
47	0x03	3
48	0xdf	-33
49	0x04	4
50	0xbc	-68
51	0x02	2
52	0xc6	-58
53	0x01	1
54	0x03	3
55	0xd2	-46
56	0x01	1
57	0xf8	-8
58	0x03	3
59	0xce	-50
60	0xfc	-4
61	0x02	2
62	0x8a	-118
63	0x88	-120
64	0xae	-82
65	0xa0	-96
66	0x00	0
67	0xb1	-79
68	0x94	-108
69	0x01	1
70	0x91	-111
71	0x02	2
72	0x99	-103
73	0x93	-109
74	0x03	3
75	0x02	2
76	0x00	0
77	0x05	5
78	0xfb	-5
79	0x8d	-115
80	0x01	1
81	0x83	-125
82	0x01	1
83	0x89	-119
84	0xae	-82
85	0xcf	-49
86	0xd9	-39
87	0xbc	-68
88	0x02	2
89	0xb8	-72
90	0x00	0
91	0x01	1
92	0x92	-110
93	0xae	-82
94	0x00	0
95	0x02	2
96	0xc5	-59
97	0xcd	-51
98	0xea	-22
99	0xbb	-69
100	0x02	2
101	0x9b	-101
102	0xea	-22
103	0x01	1
104	0xb3	-77
105	0x8c	-116
106	0x03	3
107	0xb7	-73
108	0x9c	-100
109	0xca	-54
110	0x01	1
111	0x01	1
112	0x03	3
113	0xa8	-88
114	0xc2	-62
115	0x00	0
116	0x00	0
117	0xc6	-58
118	0xf4	-12
119	0x01	1
120	0x00	0
121	0x02	2
122	0xd2	-46
123	0xc2	-62
124	0x01	1
125	0xa1	-95
126	0x00	0
127	0xc1	-63
128	0xbd	-67
129	0xad	-83
130	0x8a	-118
131	0xb0	-80
132	0xb6	-74
133	0x00	0
134	0xed	-19
135	0x00	0
136	0x7d	125
137	0xdd	-35
138	0x00	0
139	0xd4	-44
140	0x01	1
141	0xd5	-43
142	0xa9	-87
143	0xc2	-62
144	0x9c	-100
145	0x11	17
146	0x9b	-101
147	0x01	1
148	0xc6	-58
149	0xbd	-67
150	0x00	0
151	0x01	1
152	0x02	2
153	0x7d	125
154	0x02	2
155	0x81	-127
156	0xf2	-14
157	0xd0	-48
158	0xcc	-52
159	0xa6	-90
160	0xc9	-55
161	0x00	0
162	0xfe	-2
163	0x00	0
164	0xa9	-87
165	0xd5	-43
166	0x00	0
167	0x01	1
168	0x01	1
169	0xc0	-64
170	0x05	5
171	0xaa	-86
172	0x02	2
173	0x01	1
174	0x01	1
175	0x9b	-101
176	0x88	-120
177	0xf4	-12
178	0xc2	-62
179	0x88	-120
180	0x00	0
181	0x00	0
182	0xd9	-39
183	0x00	0
184	0x00	0
185	0x9a	-102
186	0x00	0
187	0xfb	-5
188	0x00	0
189	0xdc	-36
190	0x00	0
191	0x02	2
192	0xe0	-32
193	0x07	7
194	0x04	4
195	0x81	-127
196	0x03	3
197	0xe6	-26
198	0x0f	15
199	0x14	20
200	0x0a	10
201	0x04	4
202	0x07	7
203	0x03	3
204	0xf2	-14
205	0x01	1
206	0x08	8
207	0x09	9
208	0xa6	-90
209	0x10	16
210	0x05	5
211	0x00	0
212	0xe5	-27
213	0x08	8
214	0x01	1
215	0xe6	-26
216	0x05	5
217	0x01	1
218	0x00	0
219	0x0e	14
220	0xad	-83
221	0x03	3
222	0xae	-82
223	0x00	0
224	0xcb	-53
225	0x28	40
226	0xd7	-41
227	0x8e	-114
228	0xbf	-65
229	0x92	-110
230	0xcd	-51
231	0x21	33
232	0x81	-127
233	0xf3	-13
234	0x08	8
235	0x0c	12
236	0x00	0
237	0x88	-120
238	0x91	-111
239	0x11	17
240	0x01	1
241	0x6b	107
242	0x6d	109
243	0x01	1
244	0x03	3
245	0xb1	-79
246	0xdb	-37
247	0x8b	-117
248	0xf0	-16
249	0xca	-54
250	0x03	3
251	0x12	18
252	0xc0	-64
253	0x01	1
254	0x05	5
255	0xbf	-65
