tensorflow/lite/micro/integration_tests/seanet/conv/conv3.tflite (tflite, 4224 bytes, 1 tensors)

streamable_model_10/unet_0/encoder_1/conv2d_3x3/conv/conv2d_193/Conv2D i1 [16, 3, 3, 16]
3 -68 2 1 2 0 -41 -38
1 0 0 11 -62 122 -106 -99
11 -33 11 18 19 -59 1 -33
7 8 -96 -25 4 -9 -116 3
127 -126 0 -27 -109 13 -74 19
2 -70 1 -28 0 -61 6 -35
-107 8 -111 2 -103 9 -126 4
-125 -122 0 14 118 -57 9 -69
26 -25 -34 30 2 -61 -89 22
3 -76 -16 -117 -116 115 -64 22
3 17 9 6 -110 7 -90 12
2 -120 2 10 4 2 6 0
-88 -78 -51 -105 -123 48 113 3
-93 109 47 99 -106 -114 14 -40
35 -112 -85 37 -54 82 -118 59
20 78 61 116 -111 -127 -53 22
24 112 5 22 27 25 7 42
20 -91 10 8 2 -44 -91 -121
3 2 -59 22 4 16 -79 14
9 9 11 0 -74 -92 -20 23
123 -29 -50 -109 -66 0 117 -21
-80 16 -81 -25 -63 125 -59 27
-84 -62 -80 -121 -16 5 -94 0
-82 -50 -94 4 -55 -88 -29 40
-16 -60 -98 9 0 1 123 -47
6 -87 2 -102 -107 -71 -106 9
-76 -51 118 -55 -63 -97 -89 -88
-49 20 -82 -22 -119 126 119 10
-45 2 -81 -96 -38 -41 103 -26
120 6 -97 5 -116 -105 -56 30
-77 -99 -121 1 -113 102 -106 -77
-105 -113 3 -20 77 -127 -91 -37
00000000: 03bc 0201 0200 d7da 0100 000b c27a 969d
00000010: 0bdf 0b12 13c5 01df 0708 a0e7 04f7 8c03
00000020: 7f82 00e5 930d b613 02ba 01e4 00c3 06dd
00000030: 9508 9102 9909 8204 8386 000e 76c7 09bb
00000040: 1ae7 de1e 02c3 a716 03b4 f08b 8c73 c016
00000050: 0311 0906 9207 a60c 0288 020a 0402 0600
00000060: a8b2 cd97 8530 7103 a36d 2f63 968e 0ed8
00000070: 2390 ab25 ca52 8a3b 144e 3d74 9181 cb16
00000080: 1870 0516 1b19 072a 14a5 0a08 02d4 a587
00000090: 0302 c516 0410 b10e 0909 0b00 b6a4 ec17
000000a0: 7be3 ce93 be00 75eb b010 afe7 c17d c51b
000000b0: acc2 b087 f005 a200 aece a204 c9a8 e328
000000c0: f0c4 9e09 0001 7bd1 06a9 029a 95b9 9609
000000d0: b4cd 76c9 c19f a7a8 cf14 aeea 897e 770a
000000e0: d302 afa0 dad7 67e6 7806 9f05 8c97 c81e
000000f0: b39d 8701 8f66 96b3 978f 03ec 4d81 a5db
