tensorflow/lite/micro/integration_tests/seanet/conv/conv20.tflite (tflite, 1128 bytes, 1 tensors)

 i1 [8, 1, 1, 16]
0	0x61	97
1	0x78	120
2	0x77	119
3	0x1b	27
4	0x04	4
5	0x03	3
6	0xb1	-79
7	0x1e	30
8	0x25	37
9	0x20	32
10	0x1e	30
11	0xd6	-42
12	0xda	-38
13	0x07	7
14	0x78	120
15	0x34	52
16	0x50	80
17	0x0e	14
18	0x10	16
19	0x39	57
20	0x4a	74
21	0x09	9
22	0x0b	11
23	0xeb	-21
24	0x7e	126
25	0x40	64
26	0x31	49
27	0x0e	14
28	0x59	89
29	0x73	115
30	0x0c	12
31	0x73	115
32	0x9b	-101
33	0x7a	122
34	0x19	25
35	0x16	22
36	0x2f	47
37	0x03	3
38	0x74	116
39	0x00	0
40	0x06	6
41	0x6a	106
42	0x10	16
43	0xca	-54
44	0xb6	-74
45	0x9a	-102
46	0x1b	27
47	0x1a	26
48	0x22	34
49	0xc5	-59
50	0x09	9
51	0x79	121
52	0x71	113
53	0x01	1
54	0x2b	43
55	0x17	23
56	0xd9	-39
57	0x01	1
58	0x8a	-118
59	0x0d	13
60	0x0a	10
61	0xbc	-68
62	0x00	0
63	0xa6	-90
64	0x1f	31
65	0x06	6
66	0x96	-106
67	0xa0	-96
68	0x88	-120
69	0x01	1
70	0x63	99
71	0x0b	11
72	0x07	7
73	0x10	16
74	0xb6	-74
75	0x13	19
76	0x4e	78
77	0xa1	-95
78	0x7a	122
79	0xcb	-53
80	0x0e	14
81	0x7f	127
82	0x0d	13
83	0x48	72
84	0x42	66
85	0x02	2
86	0xba	-70
87	0xd7	-41
88	0x9c	-100
89	0xec	-20
90	0x0f	15
91	0x04	4
92	0xd7	-41
93	0x0b	11
94	0x0e	14
95	0x6e	110
96	0x1d	29
97	0x7c	124
98	0x0f	15
99	0x10	16
100	0x52	82
101	0x04	4
102	0xa5	-91
103	0x7e	126
104	0x09	9
105	0x7f	127
106	0x2c	44
107	0x0d	13
108	0x88	-120
109	0xcf	-49
110	0xb6	-74
111	0x2c	44
112	0x33	51
113	0x7a	122
114	0x21	33
115	0x7d	125
116	0x5d	93
117	0x07	7
118	0x02	2
119	0xe7	-25
120	0xaf	-81
121	0xdc	-36
122	0x17	23
123	0x0c	12
124	0xba	-70
125	0x86	-122
126	0xd0	-48
127	0x29	41
