tensorflow/lite/micro/integration_tests/seanet/conv/conv2.tflite (tflite, 2856 bytes, 1 tensors)

 i1 [16, 3, 4, 8]
-35 -73 2 4 6 -124 -47 4
5 2 3 0 1 -49 -42 10
-47 -56 -74 -57 -40 18 -83 13
-8 -74 7 -79 -119 11 -54 15
-73 24 -91 8 -49 4 -38 8
-71 4 123 117 -69 -96 19 11
2 5 -87 6 -115 -17 14 -95
99 49 125 -79 8 40 25 -126
-56 -52 19 13 -116 2 1 -64
21 7 -115 -94 -118 125 15 -118
67 -83 77 72 20 51 0 45
-62 15 46 -112 114 2 45 -95
-105 7 -91 2 6 -125 6 -84
4 1 -112 6 22 -125 -6 -91
-54 -119 6 7 127 10 -10 -114
-65 8 3 -64 0 6 5 -15
6 15 -128 7 -24 -76 18 -53
37 -78 23 124 -82 32 110 79
-32 9 16 -90 -92 -77 65 12
-81 38 -64 -47 0 -73 35 113
8 -98 15 5 -126 -107 6 -102
22 -119 19 41 61 26 -115 43
-18 -46 45 20 88 -28 26 96
-103 96 12 13 10 104 4 -79
-96 -97 4 2 2 8 -98 -42
11 -66 -58 5 5 -125 -106 -45
-69 -54 0 -28 7 13 -57 0
0 -48 9 0 6 6 -119 -102
6 -127 2 6 0 -65 -39 -50
3 11 -12 -57 -93 9 10 0
-79 17 -108 22 40 123 -67 8
32 -63 2 -53 -46 3 7 14
00000000: ddb7 0204 0684 d104 0502 0300 01cf d60a
00000010: d1c8 b6c7 d812 ad0d f8b6 07b1 890b ca0f
00000020: b718 a508 cf04 da08 b904 7b75 bba0 130b
00000030: 0205 a906 8def 0ea1 6331 7db1 0828 1982
00000040: c8cc 130d 8c02 01c0 1507 8da2 8a7d 0f8a
00000050: 43ad 4d48 1433 002d c20f 2e90 7202 2da1
00000060: 9707 a502 0683 06ac 0401 9006 1683 faa5
00000070: ca89 0607 7f0a f68e bf08 03c0 0006 05f1
00000080: 060f 8007 e8b4 12cb 25b2 177c ae20 6e4f
00000090: e009 10a6 a4b3 410c af26 c0d1 00b7 2371
000000a0: 089e 0f05 8295 069a 1689 1329 3d1a 8d2b
000000b0: eed2 2d14 58e4 1a60 9960 0c0d 0a68 04b1
000000c0: a09f 0402 0208 9ed6 0bbe c605 0583 96d3
000000d0: bbca 00e4 070d c700 00d0 0900 0606 899a
000000e0: 0681 0206 00bf d9ce 030b f4c7 a309 0a00
000000f0: b111 9416 287b bd08 20c1 02cb d203 070e
