tensorflow/lite/micro/integration_tests/seanet/conv/conv19.tflite (tflite, 1576 bytes, 1 tensors)

 i1 [8, 3, 3, 8]
00000000: 00be 0000 0583 bb02 c18c df8e 09a8 8100
00000010: f3ef 0800 0201 88c1 f515 b4c6 b4df 09bd
00000020: 1e0d 06e0 f5d6 b912 e2ae 0487 07c7 9a14
00000030: 9f8e 7112 12b5 0c2d 06cb 5718 1abb 2a8e
00000040: be0c bc1d b690 4b98 000e 069c 7f02 9704
00000050: 7e03 dd81 aa02 0382 0000 d100 01cf d201
00000060: d603 a57e d503 c500 000e 0bb8 00fc 9911
00000070: 0603 097d 0200 f9db 0427 0ace 9b06 5d98
00000080: 2724 0195 6078 10a0 9b90 b7ea 0db7 0da9
00000090: 8e04 0b02 c402 02b5 f29a 0404 d3db 9005
000000a0: 01b3 d3ad 08e3 9e03 aa19 c0e9 ed86 80cb
000000b0: 072a c4cc b002 c994 0a04 0877 05ab ac96
000000c0: 240b 8a08 8c04 0d58 f017 96a3 8093 1c4b
000000d0: 52b3 8773 3ab1 6910 0501 ac03 0000 f206
000000e0: 0bf4 8300 05d2 0d00 c8f8 ab9f 0600 ec04
000000f0: 09cf 8684 8c7c 07cf 989c 13cb 0504 839e
0 -66 0 0 5 -125 -69 2
-63 -116 -33 -114 9 -88 -127 0
-13 -17 8 0 2 1 -120 -63
-11 21 -76 -58 -76 -33 9 -67
30 13 6 -32 -11 -42 -71 18
-30 -82 4 -121 7 -57 -102 20
-97 -114 113 18 18 -75 12 45
6 -53 87 24 26 -69 42 -114
-66 12 -68 29 -74 -112 75 -104
0 14 6 -100 127 2 -105 4
126 3 -35 -127 -86 2 3 -126
0 0 -47 0 1 -49 -46 1
-42 3 -91 126 -43 3 -59 0
0 14 11 -72 0 -4 -103 17
6 3 9 125 2 0 -7 -37
4 39 10 -50 -101 6 93 -104
39 36 1 -107 96 120 16 -96
-101 -112 -73 -22 13 -73 13 -87
-114 4 11 2 -60 2 2 -75
-14 -102 4 4 -45 -37 -112 5
1 -77 -45 -83 8 -29 -98 3
-86 25 -64 -23 -19 -122 -128 -53
7 42 -60 -52 -80 2 -55 -108
10 4 8 119 5 -85 -84 -106
36 11 -118 8 -116 4 13 88
-16 23 -106 -93 -128 -109 28 75
82 -77 -121 115 58 -79 105 16
5 1 -84 3 0 0 -14 6
11 -12 -125 0 5 -46 13 0
-56 -8 -85 -97 6 0 -20 4
9 -49 -122 -124 -116 124 7 -49
-104 -100 19 -53 5 4 -125 -98
