tensorflow/lite/micro/kernels/integration_tests/seanet/conv/conv14.tflite (tflite, 11176 bytes, 1 tensors)

 i1 [32, 3, 3, 32]
00000000: aeae ea02 0402 02fb bd01 00ab 0301 e303
00000010: 8ce9 00b3 02a6 00a5 9708 007a 03f1 d088
00000020: 0101 bf9a b104 0c00 8dcc 01f1 0204 bb08
00000030: 0cc3 79cb 0000 cd0a 0e01 0706 9413 c20d
00000040: 0c0d 109c dff7 00cb bec1 a2d1 0208 0e02
00000050: e715 918a 900d 0b02 cba7 0005 df0c 0c86
00000060: 1da4 1102 c29f a7d5 05ae 0200 92aa df00
00000070: 0507 ed00 0388 0003 9817 0004 0482 f8f2
00000080: 0cb7 040d 00ac 9d06 d682 ac09 e705 00a4
00000090: d912 8c8d b905 0511 12c6 e99c 0184 c306
000000a0: bce1 d499 d182 020c df05 d900 0c07 0b01
000000b0: 2502 0ae3 1300 08c9 0dc0 c1e0 c841 08d9
000000c0: 0ca6 7af6 c1bd 1e1c 0a1f 8501 0e0a f004
000000d0: 088e b708 05fe a79c 82dd a001 ce06 0317
000000e0: 784c d0e4 a496 0e38 4603 8114 1a2e 8d80
000000f0: 4e3f 9875 0333 0811 9e08 aa03 0425 a30b
-82 -82 -22 2 4 2 2 -5
-67 1 0 -85 3 1 -29 3
-116 -23 0 -77 2 -90 0 -91
-105 8 0 122 3 -15 -48 -120
1 1 -65 -102 -79 4 12 0
-115 -52 1 -15 2 4 -69 8
12 -61 121 -53 0 0 -51 10
14 1 7 6 -108 19 -62 13
12 13 16 -100 -33 -9 0 -53
-66 -63 -94 -47 2 8 14 2
-25 21 -111 -118 -112 13 11 2
-53 -89 0 5 -33 12 12 -122
29 -92 17 2 -62 -97 -89 -43
5 -82 2 0 -110 -86 -33 0
5 7 -19 0 3 -120 0 3
-104 23 0 4 4 -126 -8 -14
12 -73 4 13 0 -84 -99 6
-42 -126 -84 9 -25 5 0 -92
-39 18 -116 -115 -71 5 5 17
18 -58 -23 -100 1 -124 -61 6
-68 -31 -44 -103 -47 -126 2 12
-33 5 -39 0 12 7 11 1
37 2 10 -29 19 0 8 -55
13 -64 -63 -32 -56 65 8 -39
12 -90 122 -10 -63 -67 30 28
10 31 -123 1 14 10 -16 4
8 -114 -73 8 5 -2 -89 -100
-126 -35 -96 1 -50 6 3 23
120 76 -48 -28 -92 -106 14 56
70 3 -127 20 26 46 -115 -128
78 63 -104 117 3 51 8 17
-98 8 -86 3 4 37 -93 11
