tensorflow/lite/micro/kernels/integration_tests/seanet/conv/conv1.tflite (tflite, 1576 bytes, 1 tensors)

 i1 [8, 3, 3, 8]
00000000: 0000 0000 00f1 0102 8101 0100 0504 0101
00000010: ca00 00ab 0101 0001 9804 0307 af00 0501
00000020: 0501 0203 0705 0704 0106 0500 0305 0503
00000030: 01f3 0307 10c7 1811 9d2c 0575 7323 333d
00000040: 4198 ad0d 021d 100b 02a1 0000 0202 0102
00000050: eb01 0205 0107 0400 03e1 00e2 0103 0000
00000060: b509 0cce 0cdc 0402 e20f 030d 030f 1404
00000070: 0105 0908 c911 0e8b a715 2711 c50f 368b
00000080: 2298 2b76 5a67 3426 5f68 8009 072c 1605
00000090: 0200 d800 0003 0000 0005 0e00 a507 03d9
000000a0: 0000 0500 de02 00e7 0402 c404 bd08 bb95
000000b0: 000b 0c98 0317 1197 09bb 0e82 1404 0100
000000c0: 0c00 2707 0ce7 0300 2b09 7b25 9d29 2b16
000000d0: 0d02 390c c900 02de 0005 0302 f103 0000
000000e0: bf02 9f02 0203 0001 9903 0100 cf00 0200
000000f0: 0307 0902 0307 8dec 0302 0403 0408 03c0
0 0 0 0 0 -15 1 2
-127 1 1 0 5 4 1 1
-54 0 0 -85 1 1 0 1
-104 4 3 7 -81 0 5 1
5 1 2 3 7 5 7 4
1 6 5 0 3 5 5 3
1 -13 3 7 16 -57 24 17
-99 44 5 117 115 35 51 61
65 -104 -83 13 2 29 16 11
2 -95 0 0 2 2 1 2
-21 1 2 5 1 7 4 0
3 -31 0 -30 1 3 0 0
-75 9 12 -50 12 -36 4 2
-30 15 3 13 3 15 20 4
1 5 9 8 -55 17 14 -117
-89 21 39 17 -59 15 54 -117
34 -104 43 118 90 103 52 38
95 104 -128 9 7 44 22 5
2 0 -40 0 0 3 0 0
0 5 14 0 -91 7 3 -39
0 0 5 0 -34 2 0 -25
4 2 -60 4 -67 8 -69 -107
0 11 12 -104 3 23 17 -105
9 -69 14 -126 20 4 1 0
12 0 39 7 12 -25 3 0
43 9 123 37 -99 41 43 22
13 2 57 12 -55 0 2 -34
0 5 3 2 -15 3 0 0
-65 2 -97 2 2 3 0 1
-103 3 1 0 -49 0 2 0
3 7 9 2 3 7 -115 -20
3 2 4 3 4 8 3 -64
