tensorflow/lite/micro/kernels/integration_tests/seanet/conv/conv3.tflite (tflite, 3624 bytes, 1 tensors)

 i1 [16, 3, 3, 16]
00000000: ae05 bc06 ccec eeb2 0682 00d5 c5aa 9d11
00000010: ee06 0002 82a1 a2ea 0401 01cf 0000 0398
00000020: dd02 0405 d802 0102 7f04 0201 0505 0200
00000030: a206 94d3 0408 dcd8 0bb6 00ed d8d9 9ce5
00000040: 0eef 0304 d901 88dd 090c 0707 0ca6 0705
00000050: 0880 05c8 047e 0807 848a 000d 02ab cba9
00000060: 278f 51c5 cba7 14d6 a657 9471 4486 6b91
00000070: a000 b49c d91a e900 bd86 d973 9a22 8eba
00000080: 0217 be01 0802 8d06 04be 170e 931f 180b
00000090: aa00 0803 b1a8 0805 000d 01a3 0504 06a3
000000a0: 09ab 1808 8906 9de9 001d 879a 21b8 9814
000000b0: 0100 0b06 11af 000d 0307 0d19 090b 0f02
000000c0: 6f03 a0c6 d700 debc 050f cd8c 02b0 0006
000000d0: c8bc 0fb4 73c0 a58b a51d 96bf 1698 54c4
000000e0: 0002 0605 e093 b002 ed00 0516 b8dd a785
000000f0: 1579 0712 a713 1513 d0ef ba73 09ba b61c
-82 5 -68 6 -52 -20 -18 -78
6 -126 0 -43 -59 -86 -99 17
-18 6 0 2 -126 -95 -94 -22
4 1 1 -49 0 0 3 -104
-35 2 4 5 -40 2 1 2
127 4 2 1 5 5 2 0
-94 6 -108 -45 4 8 -36 -40
11 -74 0 -19 -40 -39 -100 -27
14 -17 3 4 -39 1 -120 -35
9 12 7 7 12 -90 7 5
8 -128 5 -56 4 126 8 7
-124 -118 0 13 2 -85 -53 -87
39 -113 81 -59 -53 -89 20 -42
-90 87 -108 113 68 -122 107 -111
-96 0 -76 -100 -39 26 -23 0
-67 -122 -39 115 -102 34 -114 -70
2 23 -66 1 8 2 -115 6
4 -66 23 14 -109 31 24 11
-86 0 8 3 -79 -88 8 5
0 13 1 -93 5 4 6 -93
9 -85 24 8 -119 6 -99 -23
0 29 -121 -102 33 -72 -104 20
1 0 11 6 17 -81 0 13
3 7 13 25 9 11 15 2
111 3 -96 -58 -41 0 -34 -68
5 15 -51 -116 2 -80 0 6
-56 -68 15 -76 115 -64 -91 -117
-91 29 -106 -65 22 -104 84 -60
0 2 6 5 -32 -109 -80 2
-19 0 5 22 -72 -35 -89 -123
21 121 7 18 -89 19 21 19
-48 -17 -70 115 9 -70 -74 28
