tensorflow/lite/micro/kernels/integration_tests/seanet/conv/conv17.tflite (tflite, 3624 bytes, 1 tensors)

 i1 [16, 3, 3, 16]
00000000: 0004 db02 00a7 0100 00c3 037e cc82 a1cf
00000010: 04a6 93e1 c4dc 0209 f201 e4e1 a780 95d8
00000020: 0f0a a6af 020a b215 240e f1cf bae2 9003
00000030: 000b d70b 05ab 0a01 c6b4 bc06 0000 cb14
00000040: 10d2 c8a0 0108 1620 87d5 b6cd 0677 aa8d
00000050: 1226 c310 0030 042f 5c2e 0685 01a5 a60f
00000060: 0702 8a0e dd00 0d00 b20c c613 0a04 dc22
00000070: 11cc 868a 100d 1f36 e67e 7b9b 20c5 8f6b
00000080: 281c 841c 4559 0a35 4d4a 1fab 08c9 c80d
00000090: 910a 0006 0202 0605 0101 0187 00f2 07f8
000000a0: aae7 14ec 87f7 0f8f 0605 a9be ddb3 08c2
000000b0: d306 8a05 0a04 0a01 0706 e9a0 0397 03ab
000000c0: ad31 df10 f4ce 1aa3 0305 9912 a10a 11b9
000000d0: 8698 39b5 0000 31af 1ca4 e277 8480 1394
000000e0: a319 8d23 111d 1800 0d0f 0b83 0000 ae9e
000000f0: b92b 0315 c38a 1eee 0310 6f1f 8f11 3488
0 4 -37 2 0 -89 1 0
0 -61 3 126 -52 -126 -95 -49
4 -90 -109 -31 -60 -36 2 9
-14 1 -28 -31 -89 -128 -107 -40
15 10 -90 -81 2 10 -78 21
36 14 -15 -49 -70 -30 -112 3
0 11 -41 11 5 -85 10 1
-58 -76 -68 6 0 0 -53 20
16 -46 -56 -96 1 8 22 32
-121 -43 -74 -51 6 119 -86 -115
18 38 -61 16 0 48 4 47
92 46 6 -123 1 -91 -90 15
7 2 -118 14 -35 0 13 0
-78 12 -58 19 10 4 -36 34
17 -52 -122 -118 16 13 31 54
-26 126 123 -101 32 -59 -113 107
40 28 -124 28 69 89 10 53
77 74 31 -85 8 -55 -56 13
-111 10 0 6 2 2 6 5
1 1 1 -121 0 -14 7 -8
-86 -25 20 -20 -121 -9 15 -113
6 5 -87 -66 -35 -77 8 -62
-45 6 -118 5 10 4 10 1
7 6 -23 -96 3 -105 3 -85
-83 49 -33 16 -12 -50 26 -93
3 5 -103 18 -95 10 17 -71
-122 -104 57 -75 0 0 49 -81
28 -92 -30 119 -124 -128 19 -108
-93 25 -115 35 17 29 24 0
13 15 11 -125 0 0 -82 -98
-71 43 3 21 -61 -118 30 -18
3 16 111 31 -113 17 52 -120
