tensorflow/lite/micro/kernels/integration_tests/seanet/conv/conv8.tflite (tflite, 27816 bytes, 1 tensors)

 i1 [64, 3, 4, 32]
000000 29 7f 70 0b dc a8 c8 0c d9 01 03 80 0d 76 a4 98
       41 127 112 11 -36 -88 -56 12 -39 1 3 -128 13 118 -92 -104
000010 0c 05 09 de 75 e7 28 c6 90 75 8a 05 0c 8f ef be
       12 5 9 -34 117 -25 40 -58 -112 117 -118 5 12 -113 -17 -66
000020 0e 8d c9 22 af 2d a7 2a bd 0e 1d ee 0f 01 90 01
       14 -115 -55 34 -81 45 -89 42 -67 14 29 -18 15 1 -112 1
000030 c6 72 aa 16 02 80 19 08 00 dc 91 b3 02 b5 f3 86
       -58 114 -86 22 2 -128 25 8 0 -36 -111 -77 2 -75 -13 -122
000040 24 bd 00 21 e6 24 ee 1f 0c c0 28 95 02 0e 6f b1
       36 -67 0 33 -26 36 -18 31 12 -64 40 -107 2 14 111 -79
000050 df 6f b3 00 07 00 19 1e 6d bd 18 7a 15 94 0e ca
       -33 111 -77 0 7 0 25 30 109 -67 24 122 21 -108 14 -54
000060 23 7e 0b 98 05 b0 c8 ee e8 00 15 c5 d1 ce d6 82
       35 126 11 -104 5 -80 -56 -18 -24 0 21 -59 -47 -50 -42 -126
000070 f7 89 ed cb 1e 00 10 0d e5 00 10 7e 00 8e 20 05
       -9 -119 -19 -53 30 0 16 13 -27 0 16 126 0 -114 32 5
000080 07 f5 98 17 05 12 04 06 02 7e 11 89 0a 99 b0 b9
       7 -11 -104 23 5 18 4 6 2 126 17 -119 10 -103 -80 -71
000090 01 03 00 f1 85 84 1f 9e b9 03 07 d1 af dc 00 85
       1 3 0 -15 -123 -124 31 -98 -71 3 7 -47 -81 -36 0 -123
0000a0 02 97 01 3b 00 25 03 03 96 00 0e a5 dd c2 07 cc
       2 -105 1 59 0 37 3 3 -106 0 14 -91 -35 -62 7 -52
0000b0 e6 76 f3 03 d3 0a 00 09 f3 8f b6 ae 07 d0 0e ac
       -26 118 -13 3 -45 10 0 9 -13 -113 -74 -82 7 -48 14 -84
0000c0 0a b5 04 17 05 04 03 03 0b cb 1d 6f 9c a6 f4 af
       10 -75 4 23 5 4 3 3 11 -53 29 111 -100 -90 -12 -81
0000d0 e3 00 00 d7 0a 0b 00 03 bd 00 09 87 0d 0f 16 13
       -29 0 0 -41 10 11 0 3 -67 0 9 -121 13 15 22 19
0000e0 05 88 0e 00 0e 7a 00 90 79 75 0c cb b7 e3 ca b9
       5 -120 14 0 14 122 0 -112 121 117 12 -53 -73 -29 -54 -71
0000f0 8f 00 d0 bc 09 0a 02 ab d7 05 03 c5 0d 0a 19 02
       -113 0 -48 -68 9 10 2 -85 -41 5 3 -59 13 10 25 2
