tensorflow/lite/micro/kernels/integration_tests/seanet/conv/conv18.tflite (tflite, 1832 bytes, 1 tensors)

 i1 [16, 1, 1, 32]
31 -111 25 20 -61 33 -111 -39
3 74 -98 16 5 46 19 5
107 127 69 102 0 -115 11 41
-111 -20 36 107 52 -68 7 40
7 9 32 -121 -36 -118 8 -93
-106 34 0 39 54 118 8 110
9 -117 93 -127 21 42 18 122
0 25 -119 102 -108 110 87 13
9 -93 47 -126 -87 -67 -93 -56
9 0 -32 -56 23 83 -59 24
-124 23 -32 120 3 -124 2 127
5 -41 16 -117 -102 15 11 9
26 -82 -70 59 -105 26 -116 -11
11 13 -54 0 17 105 2 15
-63 -72 36 59 -13 -49 17 44
5 -122 3 -118 34 105 115 12
-125 -101 9 -89 38 -99 4 -15
-68 29 -24 -69 66 30 -106 21
44 31 -51 -24 -58 0 7 -46
-102 49 -78 61 -27 43 -48 -30
5 16 57 95 1 2 110 -120
14 89 -102 -85 12 126 -58 -26
-41 5 45 0 10 -119 -126 11
-42 0 38 123 -75 21 2 15
26 -112 28 28 -97 39 109 -59
4 99 -95 8 7 41 28 10
-128 -127 77 76 1 124 14 24
-115 -108 44 -119 33 -15 8 32
0 -104 13 120 46 -123 -37 -54
-120 25 -113 -116 94 26 -125 24
41 17 -118 -128 -118 -10 9 -113
-107 51 -66 56 -82 37 -91 127
00000000: 1f91 1914 c321 91d9 034a 9e10 052e 1305
00000010: 6b7f 4566 008d 0b29 91ec 246b 34bc 0728
00000020: 0709 2087 dc8a 08a3 9622 0027 3676 086e
00000030: 098b 5d81 152a 127a 0019 8966 946e 570d
00000040: 09a3 2f82 a9bd a3c8 0900 e0c8 1753 c518
00000050: 8417 e078 0384 027f 05d7 108b 9a0f 0b09
00000060: 1aae ba3b 971a 8cf5 0b0d ca00 1169 020f
00000070: c1b8 243b f3cf 112c 0586 038a 2269 730c
00000080: 839b 09a7 269d 04f1 bc1d e8bb 421e 9615
00000090: 2c1f cde8 c600 07d2 9a31 b23d e52b d0e2
000000a0: 0510 395f 0102 6e88 0e59 9aab 0c7e c6e6
000000b0: d705 2d00 0a89 820b d600 267b b515 020f
000000c0: 1a90 1c1c 9f27 6dc5 0463 a108 0729 1c0a
000000d0: 8081 4d4c 017c 0e18 8d94 2c89 21f1 0820
000000e0: 0098 0d78 2e85 dbca 8819 8f8c 5e1a 8318
000000f0: 2911 8a80 8af6 098f 9533 be38 ae25 a57f
