tensorflow/lite/micro/kernels/integration_tests/seanet/conv/conv1.tflite (tflite, 1576 bytes, 1 tensors)

 i1 [8, 3, 3, 8]
0 0 0 0 0 -20 1 2
-70 1 1 0 4 4 1 1
-41 0 0 -53 1 2 0 1
-111 4 3 8 -69 0 4 1
3 1 2 3 5 3 6 4
1 6 5 0 4 6 6 3
1 -119 3 6 20 -88 28 17
-119 44 6 68 -115 31 48 57
33 -64 -59 24 2 30 17 12
3 -109 0 0 1 2 1 2
-47 1 2 3 1 11 6 0
2 -17 0 -22 1 3 0 0
-94 14 21 -82 7 -88 6 2
-95 15 5 15 4 17 20 2
1 4 9 10 -117 10 16 -107
-126 21 45 19 -115 23 34 -66
35 -120 54 119 125 103 93 42
-103 119 -107 9 6 58 21 6
1 0 -102 0 0 3 0 0
0 5 9 0 -22 10 4 -97
0 0 3 0 -30 2 0 -121
4 2 -67 3 -6 7 -18 -26
0 9 16 -73 5 17 16 -104
5 -114 13 -15 15 3 1 0
16 0 40 6 12 -59 3 0
34 5 101 52 -121 72 24 26
13 2 96 18 -67 0 2 -81
0 3 2 3 -126 3 0 0
-106 2 -64 3 3 6 0 1
-88 4 1 0 -62 0 1 0
2 7 11 2 2 11 -22 -74
4 3 5 5 5 8 2 -92
00000000: 0000 0000 00ec 0102 ba01 0100 0404 0101
00000010: d700 00cb 0102 0001 9104 0308 bb00 0401
00000020: 0301 0203 0503 0604 0106 0500 0406 0603
00000030: 0189 0306 14a8 1c11 892c 0644 8d1f 3039
00000040: 21c0 c518 021e 110c 0393 0000 0102 0102
00000050: d101 0203 010b 0600 02ef 00ea 0103 0000
00000060: a20e 15ae 07a8 0602 a10f 050f 0411 1402
00000070: 0104 090a 8b0a 1095 8215 2d13 8d17 22be
00000080: 2388 3677 7d67 5d2a 9977 9509 063a 1506
00000090: 0100 9a00 0003 0000 0005 0900 ea0a 049f
000000a0: 0000 0300 e202 0087 0402 bd03 fa07 eee6
000000b0: 0009 10b7 0511 1098 058e 0df1 0f03 0100
000000c0: 1000 2806 0cc5 0300 2205 6534 8748 181a
000000d0: 0d02 6012 bd00 02af 0003 0203 8203 0000
000000e0: 9602 c003 0306 0001 a804 0100 c200 0100
000000f0: 0207 0b02 020b eab6 0403 0505 0508 02a4
