tensorflow/lite/micro/integration_tests/seanet/transpose_conv/transpose_conv0.tflite (tflite, 53088 bytes, 1 tensors)

streamable_model_10/unet_0/decoder_4/conv2dtranspose_3x4/conv/conv2d_transpose i1 [64, 3, 4, 64]
11 13 6 -118 3 28 -116 29
0 45 -97 22 115 -48 125 119
-73 -86 114 -95 -117 29 16 18
-128 19 -76 127 3 26 -126 53
8 54 50 26 14 9 -30 114
0 -83 76 65 13 -40 -66 43
14 -74 5 71 37 55 99 8
-41 53 15 11 -115 26 -106 -35
-113 58 13 -88 46 39 7 48
35 -40 35 20 20 -24 126 -88
-111 -125 -36 117 15 11 105 31
18 -72 -98 -52 110 2 3 20
15 5 13 18 77 38 15 98
35 17 21 -77 -66 -120 53 11
47 -108 86 19 62 -67 -49 -121
-76 40 26 127 13 -55 -99 19
-93 4 4 57 -102 -17 9 26
-83 61 7 11 56 -106 118 113
-22 8 -83 -50 114 127 -42 5
27 46 27 -117 -93 22 -107 121
126 73 27 -63 11 -94 -108 -111
14 69 72 61 -50 14 115 22
-73 0 51 49 -53 28 -55 -56
-47 32 37 26 -121 -29 8 -107
6 7 25 -89 125 -123 -120 0
-53 80 117 5 86 -92 105 -58
100 94 93 -121 -12 20 -90 16
-43 31 -77 124 -81 10 127 -71
-40 42 122 13 -101 -84 -112 -113
125 119 25 17 -64 5 -13 10
-103 -113 9 25 7 71 19 -30
7 11 17 0 25 24 -26 -62
00000000: 0b0d 068a 031c 8c1d 002d 9f16 73d0 7d77
00000010: b7aa 72a1 8b1d 1012 8013 b47f 031a 8235
00000020: 0836 321a 0e09 e272 00ad 4c41 0dd8 be2b
00000030: 0eb6 0547 2537 6308 d735 0f0b 8d1a 96dd
00000040: 8f3a 0da8 2e27 0730 23d8 2314 14e8 7ea8
00000050: 9183 dc75 0f0b 691f 12b8 9ecc 6e02 0314
00000060: 0f05 0d12 4d26 0f62 2311 15b3 be88 350b
00000070: 2f94 5613 3ebd cf87 b428 1a7f 0dc9 9d13
00000080: a304 0439 9aef 091a ad3d 070b 3896 7671
00000090: ea08 adce 727f d605 1b2e 1b8b a316 9579
000000a0: 7e49 1bc1 0ba2 9491 0e45 483d ce0e 7316
000000b0: b700 3331 cb1c c9c8 d120 251a 87e3 0895
000000c0: 0607 19a7 7d85 8800 cb50 7505 56a4 69c6
000000d0: 645e 5d87 f414 a610 d51f b37c af0a 7fb9
000000e0: d82a 7a0d 9bac 908f 7d77 1911 c005 f30a
000000f0: 998f 0919 0747 13e2 070b 1100 1918 e6c2
